Models/LatentVector13Alt.ckpt (torch, 5458 bytes, 10 tensors)

conv1.weight f4 [4, 1, 3]
00000000: 009a 72be bb8a 443f 93af 033f be6e bc3e
00000010: 7e6b 41be 32ad 323f a499 a23e a49c bc3e
00000020: 31a0 1c3f f45c f23e b64c 563e 89f9 903c
-0.23691559 0.76774186 0.5143978 0.3680324 -0.18888661 0.69795525 0.31757843 0.36838257
0.6118193 0.47336543 0.209277 0.017697113

conv1.bias f4 [4]
00000000: 49f1 d73d 484e 8ebd d8ea afbe 3c38 eebe
0.10544068 -0.06948525 -0.3435886 -0.46527278

conv2.weight f4 [8, 4, 3]
00000000: 9497 e03e 7cbe c43b 11c3 edbe b01e 733e
00000010: 0874 8a3e fd63 9c3d c2e5 6c3d 039f 223e
00000020: 3bb7 fbbd b578 ce3d cf0d 4fbc 5e79 2f3c
00000030: 829d 3dbe 0261 03bf 4414 dd3c 2962 9cbd
00000040: 1187 f03d 3f05 1f3b a463 f83d 4058 b1bd
00000050: ac50 78bd ec34 a5be 2f9b 173e 3797 063c
00000060: e94d 9b3e f9f5 223f bfcd 823e 1f26 a43e
00000070: 7752 4e3d 9d96 4d3e eace 4fbe 7108 873e
00000080: f820 f13d 97ba 66be 2cba 21be 71e9 8abb
00000090: 7201 8a3e 5bca 19be 1300 f4bb 8ca5 103e
000000a0: 44e2 76be f706 15be e8be 91bb 2432 52be
000000b0: c214 bdbd add8 44be b58d b8bc e7bf 65be
000000c0: 5c82 b9be 54fc 08bf 3733 e0be 03a2 6bbe
000000d0: 5517 2bbe f14e 89bc 4485 963e e128 09bd
000000e0: 6c3e 2c3d 5c6e 79be f737 ef3d 2657 a5bc
000000f0: 734a cdba d9dd 963e 16e3 693e 58c5 54bc
00000100: 8066 c4bd c61c 193b 1e32 76be 2204 883e
00000110: a141 29be a995 493e 5eeb 8e3e 1856 213e
00000120: da3b b83e 3aae 52be 18dd 87bd 1728 0a3e
00000130: 2c1e 67be c4f4 9ebe 6e4c 6e3d 026f 6d3e
00000140: a7f2 163e 1641 1d3e 8c97 3a3e 9d33 523e
00000150: f6cb c9bd 9a8c d83d d0af 183f 6974 03be
00000160: 7a84 fb3d d408 c4bc 9d3f 3f3d cfbd a13d
00000170: 98db 963e e4ec b9bd ed69 ad3d 5845 8ebd
0.43865645 0.006004153 -0.46437886 0.23742175 0.2704165 0.07636259 0.0578363 0.1588097
-0.12290808 0.10081617 -0.01263757 0.010710089 -0.18517116 -0.513199 0.026987202 -0.0763591
0.11744512 0.0024264602 0.1212838 -0.086594105 -0.06062381 -0.3226694 0.14805292 0.008214763
0.30332878 0.63656574 0.25547597 0.32060334 0.050371613 0.20076986 -0.20293775 0.26373628
0.117738664 -0.22532116 -0.15793675 -0.004239254 0.26954228 -0.15018599 -0.007446298 0.14125651
-0.24109751 -0.14553438 -0.0044478066 -0.2052694 -0.09232475 -0.1922328 -0.022528509 -0.22436486
-0.3623227 -0.5351002 -0.43789074 -0.23011021 -0.16708119 -0.016761275 0.2939855 -0.03348625
0.042051718 -0.24358505 0.11680596 -0.020183157 -0.0015662446 0.2946613 0.22840533 -0.012986504
-0.09589863 0.0023363098 -0.24042556 0.26565653 -0.16528942 0.19685997 0.27913946 0.15755498
0.35983163 -0.20574275 -0.06633967 0.13491856 -0.22570103 -0.31046116 0.058178358 0.23186877
0.14741002 0.1535686 0.18221873 0.20527501 -0.098533556 0.105736926 0.5964327 -0.12837376
0.12281127 -0.02392999 0.046691526 0.07897531 0.29464412 -0.090783864 0.08467469 -0.0694682

conv2.bias f4 [8]
00000000: bc7c 143e 5b6a 4f3d 0635 723e 245f 59be
00000010: 8ed3 28be d73c 183e fa1a 96be 0ada d6bd
0.14500707 0.050638538 0.2365304 -0.212277 -0.16486952 0.14866959 -0.29317456 -0.104908064

conv3.weight f4 [1, 8, 3]
00000000: d82a 383e 59bf 38bd 7dcc c7bd 8325 29bd
00000010: 57d3 6a3e 8330 463d ddb2 6abc 7dcc 6bbe
00000020: 8d35 4cbc c240 293e 19bf 79bd 5f01 633e
00000030: 0fc0 0c3d f6e0 993e 8618 903d a2cc 7dbe
00000040: 4417 1dbd ad82 68be b8dd a9ba 120e a2bd
00000050: 4353 74be 449b c13b 5894 40be 9742 f23d
0.17985094 -0.04510436 -0.097558 -0.04129554 0.22932182 0.048386108 -0.014324871 -0.23027225
-0.012463939 0.1652861 -0.06097326 0.22168492 0.03436285 0.30054444 0.070359275 -0.24785092
-0.038352266 -0.22706099 -0.0012959754 -0.0791284 -0.23859887 0.0059084017 -0.18806589 0.11829107

conv_t1.weight f4 [1, 8, 3]
00000000: c56d 76be 3f40 c6be d03b 45be df39 853e
00000010: 1b94 ca3e 6672 5d3e 1e30 8dbe af40 76be
00000020: ec26 98be 0b4b 613e 0cc3 c03e 2047 593e
00000030: d3cc 383e dfbb 3a3e 5747 f33c 6761 5cbe
00000040: 3df5 89be 4254 c8bc c864 4f3d 8614 3dbe
00000050: b609 a43d eb07 1ebe 56b7 d0be e60b c1bd
-0.24065311 -0.3872089 -0.19261098 0.26020715 0.3956612 0.21625671 -0.27575773 -0.24048112
-0.29717195 0.22001283 0.3764881 0.21218538 0.18046884 0.1823573 0.029697103 -0.21521531
-0.26944914 -0.02445424 0.050633222 -0.1846486 0.08009665 -0.15432708 -0.40764874 -0.094260976

conv_t1.bias f4 [8]
00000000: 3290 c7be 698d 0b3e cf4d 62be 089b 523e
00000010: ec5c 4e3e a8e7 edbd b854 50be daae 94be
-0.389772 0.13628162 -0.22099994 0.20566952 0.20152634 -0.116164505 -0.20344818 -0.2903965

conv_t2.weight f4 [8, 4, 3]
00000000: bf9a fcbd 1a53 94bc ea72 20be 8d33 35be
00000010: 62d1 8c3d 15cf c2bd 6afe 883e 5316 a63e
00000020: 12cb 0bbc 45a5 5dbe 14a8 f4be 84ec 403b
00000030: 27f6 9f3e 1bde 9b3a c3d5 a73e e710 dd3b
00000040: 439c a33e 2cf7 513e 91ea 64bd 1b37 cabd
00000050: 901a 95bd 0dbc f0bc 31ef c7bc cd84 ad3e
00000060: 7b16 343d 96e9 42be 5ed4 82bc 5b61 14be
00000070: 12dd f0be 7d0b 9b3d 8b2e 82bd 2492 de3d
00000080: 9151 d6ba 645e b03d fc9c afbe 9904 aabd
00000090: 3151 d33d ec74 cf3e fc2f be3e 077e 513e
000000a0: edd3 fe3d 84a0 7c3e 62eb 14bd 762f ebbe
000000b0: c8d8 15be 41eb b63e ef0f 303b 2d6b 69bc
000000c0: 84b0 95bd 1df2 cb3e 754a 08be 3208 e63d
000000d0: 55d7 7f3c 2a17 bd3e d00b abbe b426 13be
000000e0: d9b8 a5be b83d 693d 9bc0 8e3e 1e9e 0f3e
000000f0: 8cdf 7ebe eeb8 e3be 85bc 95be 89cf 84be
00000100: dc3b 12bd 45cb c4bc 52eb 79bd 3c0d a43d
00000110: f4ae b03e 932b c4be 54b7 f03c 23fe 04be
00000120: cb13 95be 7101 afbc c402 423e 3b38 4c3d
00000130: cf7f 7ebe b262 e6bd 3aad 143e bc47 573d
00000140: b5db 443e 130e a3be 01d2 86be a17b 8abe
00000150: 0a82 093e f2fd e3be df68 82be 7d34 a43d
00000160: 6d50 8ebe 5904 123e 7e03 c8bd 3cca 9a3e
00000170: a8cd 2f3e 347e 083e 3ea3 9ebd 3787 a9bc
-0.12334203 -0.018106032 -0.15668836 -0.17695446 0.06875874 -0.09512154 0.26756603 0.32438907
-0.008532302 -0.21645077 -0.47784483 0.002943785 0.31242487 0.0011891754 0.32780275 0.0067463997
0.31955156 0.20504445 -0.055887762 -0.09873792 -0.07280457 -0.029386545 -0.024406048 0.3389038
0.04396675 -0.19034418 -0.015970405 -0.14490263 -0.47043663 0.075705506 -0.063565336 0.10867718
-0.0016351213 0.086117536 -0.34299457 -0.08301658 0.103182204 0.40518892 0.37145984 0.20458232
0.124427654 0.24670607 -0.03635729 -0.45934647 -0.14633477 0.3572636 0.0026864966 -0.014246744
-0.07309058 0.39833155 -0.13309653 0.11232032 0.015615304 0.36931735 -0.3340745 -0.14370233
-0.3236759 0.056943625 0.2788132 0.1402516 -0.24889964 -0.44477028 -0.2924539 -0.25939587
-0.035701618 -0.024022708 -0.061015435 0.08010337 0.3450848 -0.38314494 0.029384293 -0.1298757
-0.29116663 -0.021362992 0.18946368 0.049858313 -0.24853443 -0.112492934 0.14519206 0.052558646
0.19224437 -0.31846675 -0.26332095 -0.27047446 0.13428512 -0.44529682 -0.25470635 0.08017824
-0.27795735 0.14259471 -0.09766291 0.30232418 0.17168295 0.13329393 -0.0774598 -0.020694358

conv_t2.bias f4 [4]
00000000: d0ba 423d da4f 163e 9d43 493d 1562 6ebc
0.04754144 0.14678898 0.049136747 -0.014549752

conv_t3.weight f4 [4, 1, 2]
00000000: 50d4 5cbf a8ac 4cbe 820f 5ebf d7d3 24be
00000010: e970 2d3e 714c 173f 4b2b 063f 7808 30bf
-0.86261463 -0.19987738 -0.86742413 -0.16096435 0.16937603 0.59101015 0.5240981 -0.6876292
