Models/LatentVector27.ckpt (torch, 18338 bytes, 10 tensors)

conv1.weight f4 [16, 1, 3]
-0.21963362 0.32912183 0.4626176 -0.2865614 0.14406694 -0.2537516 0.31094566 -0.15479608
-0.49030563 -0.51573735 -0.031724274 0.14237894 -0.37241712 0.45743722 0.2467148 0.39697865
0.3262028 -0.49328753 -0.047326755 0.30866754 0.2372647 -0.44289875 -0.31091028 0.38213387
-0.3562672 0.5827003 -0.017320588 -0.0016086526 0.26762938 0.13671009 -0.25059745 0.17378087
-0.4829366 -0.3017052 -0.12862687 -0.14532381 0.34287927 -0.34132025 0.4260957 0.23200314
0.16352685 0.35979408 -0.19980633 -0.40233323 0.1259505 0.22834536 0.2411976 -0.036232293
00000000: a3e7 60be a882 a83e 37dc ec3e 2db8 92be
00000010: 4986 133e bbeb 81be 4534 9f3e dd82 1ebe
00000020: 5709 fbbe 5d07 04bf 50f1 01bd c9cb 113e
00000030: 75ad bebe 3635 ea3e cea2 7c3e c940 cb3e
00000040: 0e04 a73e 2f90 fcbe b3d9 41bd ac09 9e3e
00000050: 84f5 723e a0c3 e2be a22f 9fbe 0da7 c33e
00000060: a868 b6be d92b 153f e8e3 8dbc 6dd9 d2ba
00000070: b806 893e bbfd 0b3e 4f4e 80be 9df3 313e
00000080: 7743 f7be 1b79 9abe c3b6 03be c4cf 14be
00000090: df8d af3e 87c1 aebe 3729 da3e 3b92 6d3e
000000a0: 9573 273e ee36 b83e 089a 4cbe 9ffe cdbe
000000b0: 2bf9 003e 5ed3 693e 81fc 763e 5068 14bd

conv1.bias f4 [16]
0.5708504 0.106134325 0.23905519 -0.27479032 0.19616382 -0.20162511 -0.46098158 -0.38085774
-0.2841827 -0.07764026 -0.27082163 0.488193 0.24506132 -0.5021596 -0.010770798 0.4971055
00000000: 4023 123f f45c d93d e2ca 743e 51b1 8cbe
00000010: 2bdf 483e d076 4ebe c705 ecbe c9ff c2be
00000020: 6580 91be db01 9fbd 22a9 8abe 6ff4 f93e
00000030: 5bf1 7a3e 888d 00bf 0078 30bc 9d84 fe3e

conv2.weight f4 [32, 16, 3]
-0.025927542 0.012339451 0.048057146 -0.02780346 -0.102087736 -0.0743744 -0.027039941 0.09707125
-0.16633202 0.053824324 -0.02422511 -0.0032483856 -0.045972057 -0.083703 0.05687575 -0.0030382834
-0.14380398 0.067451015 0.116316184 -0.060161956 0.06464096 -0.023375167 0.13947739 0.0131245935
-0.11930475 0.031108215 0.12895016 -0.04279144 -0.07336115 -0.0069076605 0.11157085 0.13506968
-0.039549932 0.09270391 0.08685942 0.11214381 0.076490305 -0.12102393 -0.105373785 -0.13635834
0.09103604 -0.0396428 0.08009601 -0.028434737 -0.07285218 0.08292245 -0.051417243 -0.08161873
-0.0027821795 -0.10770537 -0.1312592 -0.06425789 -0.020330759 -0.1021237 0.13092755 -0.0108250985
-0.091425054 0.07607494 -0.007991857 -0.009067692 0.057462182 -0.1714029 0.1611399 0.121946126
0.07050113 -0.18959652 0.12562156 -0.12873706 -0.031692173 -0.11756032 -0.09198848 0.06918211
-0.15562305 -0.17584303 0.041084845 0.10218471 0.0008667959 -0.006330297 -0.068952605 -0.039228536
-0.08207937 -0.11265099 0.11227118 0.020305002 -0.057339955 -0.010260816 -0.062726565 -0.06930309
0.10343861 0.07529797 -0.00038518177 0.00011785792 -0.081983484 0.042024866 -0.09662875 -0.15906286
0.11163666 -0.0077566453 0.07885909 0.06770402 0.04266379 -0.055830278 -0.050857786 0.0055028014
0.00039135717 -0.034148492 -0.14505374 -0.06683511 0.14412539 -0.010905668 -0.07928853 0.16235092
0.02133437 -0.061881375 0.13669772 -0.104205616 -0.066106506 0.081591435 -0.04319686 -0.050853636
0.12808509 0.023779022 -0.12136157 -0.02467295 -0.0013070332 0.006876369 -0.14289588 -0.057580143
0.05571581 -0.16830015 -0.15454654 0.030526321 0.06795773 -0.13998517 -0.15149862 0.15965316
0.15566234 -0.06511185 0.0926053 0.09269639 0.117986806 -0.044233546 -0.0282542 0.074773185
0.10569191 -0.009723438 0.17873283 0.17355783 -0.058862038 -0.14775687 -0.109602734 -0.1392304
-0.07862344 -0.10470276 -0.14428206 -0.000335654 0.16108342 0.26638678 0.19707705 0.003156096
-0.11443916 -0.10631668 -0.13486306 0.06439658 0.02777887 -0.010533685 -0.11496428 -0.14838429
-0.10509595 -0.0077774283 -0.07247715 -0.022857403 -0.010528035 0.028880188 -0.118964896 0.018478395
-0.21533142 0.07144129 -0.113944195 -0.07574391 0.15915187 0.017645545 0.067303926 0.014923675
-0.14761403 -0.044423968 0.08146725 0.02556435 -0.064449094 -0.06278684 -0.06828243 0.0874997
0.124977335 -0.041903168 0.018732779 0.062867366 -0.1621366 0.0893272 0.077185474 -0.1273413
0.11512198 0.09469712 0.10790067 0.0911779 0.059524965 0.1625048 -0.061271958 0.03373452
0.18825948 0.019151038 0.06660735 -0.017656712 0.08208593 0.054013003 0.09885045 -0.02681229
0.08112888 0.12906417 0.029294515 -0.07285604 0.2064991 -0.027333945 0.049606852 -0.12754317
0.018451115 -0.056756143 -0.17050986 0.0315388 -0.020815033 -0.04547519 -0.02207714 0.13475363
0.13960737 0.07514426 0.023522593 -0.004875777 0.013083845 0.12620145 0.10436785 -0.060595594
-0.048411846 0.049224272 0.09046426 -0.09595171 -0.06305274 -0.056298725 0.15124397 0.13442083
-0.060080893 -0.009544202 0.04239072 0.017596316 -0.08487837 -0.1395054 -0.08622296 -0.03377321
00000000: ff65 d4bc 692b 4a3c 92d7 443d 15c4 e3bc
00000010: 6013 d1bd 9b51 98bd de82 ddbc 4bcd c63d
00000020: f152 2abe e576 5c3d bd73 c6bc dee2 54bb
00000030: 324d 3cbd 7a6c abbd 8cf6 683d f01d 47bb
00000040: 5a41 13be c223 8a3d 2e37 ee3d 626c 76bd
00000050: 7b62 843d 477d bfbc 29d3 0e3e 8908 573c
00000060: 0c56 f4bd a8d6 fe3c 830b 043e 1446 2fbd
00000070: 5f3e 96bd a859 e2bb 427f e43d b54f 0a3e
00000080: 1cff 21bd 8cdb bd3d 5ae3 b13d a7ab e53d
00000090: f3a6 9c3d 65db f7bd 36ce d7bd 85a1 0bbe
000000a0: 1a71 ba3d 7d60 22bd 6009 a43d f7ef e8bc
000000b0: 8633 95bd 3fd3 a93d e39a 52bd b927 a7bd
000000c0: 3a55 36bb a294 dcbd d068 06be a499 83bd
000000d0: b18c a6bc 3b26 d1bd df11 063e c15b 31bc
000000e0: 0f3d bbbd 2ecd 9b3d 47f0 02bc a890 14bc
000000f0: 775d 6b3d 3e84 2fbe dc01 253e e4be f93d
00000100: e562 903d 9725 42be f0a2 003e a6d3 03be
00000110: a7cf 01bd 77c3 f0bd 7564 bcbd 5aaf 8d3d
00000120: a65b 1fbe 3210 34be 9548 283d 3846 d13d
00000130: b039 633a 616e cfbb 0637 8dbd 1aae 20bd
00000140: 3b19 a8bd 90b5 e6bd 6fee e53d ad56 a63c
00000150: 4ddd 6abd fb1c 28bc c976 80bd c7ee 8dbd
00000160: 9fd7 d33d d235 9a3d 39f2 c9b9 7d2a f738
00000170: f5e6 a7bd 4422 2c3d 4be5 c5bd 60e1 22be
00000180: c3a1 e43d 752b febb e080 a13d 68a8 8a3d
00000190: 3ac0 2e3d 4aae 64bd 4150 50bd d850 b43b
000001a0: 122f cd39 4adf 0bbd f888 14be d9e0 88bd
000001b0: 9b95 133e b0ad 32bc 0662 a2bd 523f 263e
000001c0: 6bc5 ae3c 5377 7dbd 7dfa 0b3e c169 d5bd
000001d0: d962 87bd 6919 a73d 31ef 30bd e74b 50bd
000001e0: bd28 033e 39cc c23c 6a8c f8bd ed1e cabc
000001f0: c250 abba 2a53 e13b 4c53 12be 28d9 6bbd
00000200: 4336 643d e056 2cbe 7341 1ebe 5612 fa3c
00000210: 6c2d 8b3d 4658 0fbe 7422 1bbe 1e7c 233e
00000220: f365 1f3e 5d59 85bd d9a7 bd3d 9bd7 bd3d
00000230: 11a3 f13d 3c2e 35bd 5a75 e7bc af22 993d
00000240: 0075 d83d 0e4f 1fbc bd05 373e 25b9 313e
00000250: 5219 71bd 944d 17be 6677 e0bd 6a92 0ebe
00000260: 5305 a1bd 676e d6bd adbe 13be b8fa afb9
00000270: 0df3 243e d963 883e 91ce 493e 81d6 4e3b
00000280: 145f eabd 8fbc d9bd 8b19 0abe 5be2 833d
00000290: 8390 e33c 7a95 2cbc 6472 ebbd 0df2 17be
000002a0: 8c3c d7bd ccd9 febb e66e 94bd 733f bbbc
000002b0: c87d 2cbc 2596 ec3c dea3 f3bd 0160 973c
000002c0: d77f 5cbe d04f 923d 935b e9bd a01f 9bbd
000002d0: b5f8 223e 648d 903c a4d6 893d 6e82 743c
000002e0: 2228 17be e8f5 35bd 4dd8 a63d 546c d13c
000002f0: e3fd 83bd 6396 80bd a9d7 8bbd 0b33 b33d
00000300: 1ef4 ff3d a8a2 2bbd 7c75 993c 9bc0 803d
00000310: 2307 26be 2ef1 b63d 6b13 9e3d c265 02be
00000320: 13c5 eb3d 90f0 c13d 07fb dc3d 7bbb ba3d
00000330: 73d0 733d a967 263e 4ef8 7abd 352d 0a3d
00000340: 18c7 403e a3e2 9c3c 6f69 883d cfa4 90bc
00000350: ab1c a83d bd3c 5d3d 1b72 ca3d 73a5 dbbc
00000360: e626 a63d 6629 043e 0dfb ef3c 8c35 95bd
00000370: 8074 533e 70eb dfbc 8e30 4b3d ad9a 02be
00000380: cb26 973c 2179 68bd 239a 2ebe d42e 013d
00000390: 4a84 aabc 3144 3abd 1edb b4bc dbfc 093e
000003a0: 3cf5 0e3e 3ce5 993d 74b2 c03c fbc4 9fbb
000003b0: a05d 563c f43a 013e d0be d53d 1633 78bd
000003c0: 804b 46bd 649f 493d 5345 b93d 5582 c4bd
000003d0: cc21 81bd 7e99 66bd b3df 1a3e 9da5 093e
000003e0: 6217 76bd 495f 1cbc e4a1 2d3d 2626 903c
000003f0: b6d4 adbd 81da 0ebe aa95 b0bd c755 0abd

conv2.bias f4 [32]
-0.0060125235 0.12494637 0.055741444 0.13150351 0.020908706 -0.066268295 -0.069235735 -0.052125894
-0.12601385 0.053663086 -0.028769238 -0.0850541 0.034123115 -0.009411201 0.08146523 -0.10130107
0.12802063 -0.05635345 0.06444996 0.13742608 -0.005825822 -0.13308808 -0.091563635 0.14577413
-0.14138512 -0.079347596 0.088134035 -0.12710734 0.12214929 0.0083152745 0.055815727 0.040298525
00000000: b404 c5bb e2e3 ff3d 2451 643d dba8 063e
00000010: bc48 ab3c acb7 87bd 77cb 8dbd f681 55bd
00000020: c609 01be d3cd 5b3d 77ad ebbc d830 aebd
00000030: aec4 0b3d 7031 1abc 3ed7 a63d ef76 cfbd
00000040: d717 033e e0d2 66bd 57fe 833d 6cb9 0c3e
00000050: 89e6 bebb 3e48 08be b785 bbbd d045 153e
00000060: 43c7 10be fe80 a2bd 9e7f b43d 6d28 02be
00000070: 6829 fa3d ca3c 083c 089f 643d 1110 253d

conv3.weight f4 [1, 32, 3]
-0.0076090656 0.021380195 -0.12067064 0.03464932 -0.11969774 0.08602901 0.08301296 -0.061889566
0.081408665 -0.0007533457 0.10759532 -0.0011270235 -0.0589192 0.05790922 0.06947707 0.07316962
0.006595891 -0.08173839 0.036082245 0.010386337 0.102930434 0.03166599 0.10715674 0.0020082537
-0.031537965 -0.078750394 0.10896851 0.07778303 0.055617712 -0.07338253 0.053066745 0.054825835
-0.10996004 0.022911003 0.13326207 -0.061664887 0.022961127 -0.005243074 -0.05430252 0.0744931
0.12832564 0.122606605 -0.08274686 -0.0035917766 0.1013867 0.09563024 0.008870409 0.0869088
0.044371393 -0.028906183 0.026088197 0.051415876 -0.016342336 -0.061549373 -0.043910407 -0.09053657
-0.051835407 0.03064669 0.06257116 0.0045788162 -0.012464864 0.087626204 0.025075015 -0.09404237
0.10576815 0.078536764 0.0024019626 0.06391348 -0.06490696 0.05303437 0.06435491 0.015901636
-0.08533256 0.07389734 0.014925288 -0.093899995 -0.013291467 -0.023018133 -0.057155147 0.09781654
0.098385386 -0.018340232 -0.07690327 -0.09648159 -0.057208735 0.07381359 0.07403644 -0.05677527
0.033176385 0.003004033 0.0012502504 -0.04355616 -0.08824645 -0.00040830433 -0.22511989 -0.08977502
00000000: 7855 f9bb 8525 af3c 2b22 f7bd 72ec 0d3d
00000010: 1724 f5bd fa2f b03d b302 aa3d ea7f 7dbd
00000020: 96b9 a63d 2d7c 45ba ef5a dc3d a2b8 93ba
00000030: 4255 71bd 3832 6d3d fe49 8e3d f4d9 953d
00000040: 5822 d83b 7566 a7bd faca 133d 742b 2a3c
00000050: 31cd d23d 32b4 013d fe74 db3d e89c 033b
00000060: f42d 01bd e347 a1bd e22a df3d b64c 9f3d
00000070: 66cf 633d 9449 96bd 845c 593d 0e91 603d
00000080: bb32 e1bd dbaf bb3c da75 083e 5294 7cbd
00000090: f918 bc3c 18ce abbb 526c 5ebd d78f 983d
000000a0: cc67 033e 2c19 fb3d 3077 a9bd 0364 6bbb
000000b0: d5a3 cf3d cad9 c33d 3155 113c 3efd b13d
000000c0: c7be 353d a9cc ecbc eab6 d53c 7499 523d
000000d0: 5de0 85bc 321b 7cbd 66db 33bd 3d6b b9bd
000000e0: 5d51 54bd c40e fb3c 4f25 803d e509 963b
000000f0: 6e39 4cbc 5e75 b33d 1e6a cd3c 4999 c0bd
00000100: f99c d83d e2d7 a03d 3f6a 1d3b 12e5 823d
00000110: f1ed 84bd 913a 593d 82cc 833d 2644 823c
00000120: d6c2 aebd 7d57 973d 3289 743c a44e c0bd
00000130: 74c4 59bc 8690 bcbc 841b 6abd 0a54 c83d
00000140: 477e c93d 413e 96bc 767f 9dbd 2498 c5bd
00000150: b553 6abd 942b 973d 6ba0 973d 2f8d 68bd
00000160: f6e3 073d 4fdf 443b 71df a33a f267 32bd
00000170: 8eba b4bd ae11 d6b9 d485 66be f7db b7bd

conv_t1.weight f4 [1, 32, 3]
-0.05109636 0.015836073 0.10934223 0.051792856 -0.093495 0.3486224 -0.08161735 -0.08844331
0.029389303 0.008979793 0.0006557315 0.16057134 0.017508758 0.11090897 0.15697159 0.033797864
-0.20444989 -0.15439779 -0.00077386294 0.23575416 -0.06052604 0.14557101 -0.08727314 0.06744466
-0.0038703275 0.049765065 0.2030452 -0.1325402 0.24029543 0.14770675 -0.06792036 -0.03995027
-0.2471026 0.015700553 0.09227441 0.008453393 -0.04698977 0.09559092 0.25042996 -0.024995254
-0.24432811 -0.038506303 0.122708514 -0.097065225 -0.114993945 0.022981888 0.16269901 0.16668493
0.070032924 -0.101010434 0.044881392 -0.061730046 -0.09867857 -0.064286456 0.032909714 0.1701468
0.2222859 0.09874165 -0.15198348 0.16027538 0.09932625 -0.22199138 -0.019253267 -0.13859557
0.2618048 0.07720154 0.039777525 0.1812891 0.18427229 -0.007674355 0.11513389 0.0038055552
0.07952462 -0.19609198 0.11495651 0.049712922 -0.22468284 -0.13759412 -0.07181939 0.052339137
0.09258044 -0.020728366 -0.22726046 -0.13662983 -0.0043633888 -0.07294618 0.014871484 0.0019123994
0.16946259 0.07161922 -0.050093286 -0.10940673 -0.17783406 0.050595365 0.10507464 0.20274884
00000000: 6b4a 51bd a7ba 813c d2ee df3d bf24 543d
00000010: 4e7a bfbd a37e b23e ff26 a7bd c421 b5bd
00000020: d6c1 f03c fb1f 133c 65e5 2b3a d06c 243e
00000030: 876e 8f3c 3e24 e33d 29bd 203e a16f 0a3d
00000040: 505b 51be 741a 1ebe 10dd 4aba 8a69 713e
00000050: 27ea 77bd 9110 153e 43bc b2bd 6d20 8a3d
00000060: 52a5 7dbb 74d6 4b3d 15eb 4f3e 9eb8 07be
00000070: 0110 763e 7040 173e d419 8bbd e5a2 23bd
00000080: 7708 7dbe 729e 803c 5efa bc3d 1a80 0a3c
00000090: 5878 40bd 2cc5 c33d 5b38 803e d9c2 ccbc
000000a0: 2631 7abe c9b8 1dbd 9a4e fb3d 22ca c6bd
000000b0: f281 ebbd 8344 bc3c 929a 263e 74af 2a3e
000000c0: 6c6d 8f3d 8fde cebd 8dd5 373d a5d8 7cbd
000000d0: fd17 cabd 9ea8 83bd 56cc 063d f63a 2e3e
000000e0: ea9e 633e 1039 ca3d 8fa1 1bbe 3b1f 243e
000000f0: 906b cb3d b551 63be 07b9 9dbc ffeb 0dbe
00000100: 470b 863e d71b 9e3d c2ed 223d daa3 393e
00000110: e0b1 3c3e 2879 fbbb 51cb eb3d 9f66 793b
00000120: cedd a23d 56cc 48be 526e eb3d c79f 4b3d
00000130: 4213 66be 79e5 0cbe 0b16 93bd 9061 563d
00000140: d09a bd3d 89ce a9bc f7b6 68be b1e8 0bbe
00000150: c2fa 8ebb cf64 95bd 86a7 733c 7aa9 fa3a
00000160: 9a87 2d3e 19ad 923d 9e2e 4dbd a310 e0bd
00000170: 221a 36be 163d 4f3d 5f31 d73d 649d 4f3e

conv_t1.bias f4 [32]
-0.098444454 -0.07916776 -0.03439688 -0.09132026 -0.12659164 -0.05204273 0.04330821 -0.023535984
-0.040955074 0.018712644 0.05362009 0.02041318 -0.061191317 0.115225725 -0.028945915 -0.07336122
0.018007288 -0.105367765 -0.05445735 0.07378579 0.018109756 -0.056487802 -0.037706498 -0.020942973
0.06813472 0.04285851 0.05562112 0.13031992 -0.07612627 -0.09792179 0.0110647855 -0.07440472
00000000: 3f9d c9bd b522 a2bd bee3 0cbd 1e06 bbbd
00000010: 3da1 01be c22a 55bd f363 313d 89ce c0bc
00000020: 82c0 27bd 424b 993c bda0 5b3d 8b39 a73c
00000030: bfa3 7abd 77fb eb3d fc1f edbc 683e 96bd
00000040: 0584 933c 0ecb d7bd ac0e 5fbd 011d 973d
00000050: e95a 943c c15f 67bd 2172 1abd 9990 abbc
00000060: 378a 8b3d 688c 2f3d f9d2 633d 9672 053e
00000070: 17e8 9bbd 388b c8bd 1349 353c 8061 98bd

conv_t2.weight f4 [32, 16, 3]
-0.09595211 0.13252933 0.12590693 0.11999352 -0.058104936 -0.01822483 -0.10771938 -0.028095093
0.12326243 0.0027714067 0.039550766 -0.14960325 0.041809436 0.053970926 -0.06386807 0.12211213
0.09902254 -0.09748366 -0.0957878 0.0344237 -0.13016888 -0.0939654 0.09026431 -0.04573932
-0.021439824 -0.09281911 0.07753801 0.09625419 0.05794244 -0.1409502 -0.02141076 0.12052498
0.09262502 -0.015402279 0.12432047 0.0031483208 0.019433875 0.12590124 0.09887108 -0.119705364
-0.13133237 0.041876387 0.11118227 0.0068912306 0.14557113 -0.029315969 -0.11122776 -0.020450726
-0.20146723 0.00870713 -0.05918826 0.23951705 -0.04225974 0.02321465 -0.15122569 0.020035254
-0.024986329 0.124336794 0.14033295 -0.14429279 -0.22673042 -0.054640222 0.042581294 0.10353255
0.11576781 -0.07667446 0.21727128 0.08510309 -0.115553364 0.14174487 -0.042046368 -0.14398862
-0.092023514 -0.19324188 -0.13417226 0.0039452715 -0.0148015 0.06764548 0.11153713 -0.13889836
-0.11609902 0.021786073 0.19313364 -0.12112062 0.0058040484 0.020661928 -0.050096776 -0.041837096
0.029127175 0.15291095 0.029153746 0.16664283 0.095161244 -0.01986146 -0.18838084 0.0699897
-0.028958533 -0.122805916 -0.040758476 0.10924499 0.04811918 0.096934035 0.09528816 0.038351726
0.14642587 0.009658847 -0.01827078 -0.09424445 0.08534145 0.060877327 0.123391435 -0.021931062
-0.13217308 -0.0026742655 0.021864582 -0.091474704 0.010699123 -0.007596993 0.11713462 -0.018067027
-0.06517284 0.086769655 0.025609093 -0.04023641 0.058715098 0.14152423 0.08582151 -0.006916365
0.10932973 -0.050487075 0.12039692 -0.10296645 0.0018973144 0.12393718 0.02287932 -0.04054255
0.079531215 0.10390955 -0.108034834 0.009372715 -0.088936605 -0.03927949 -0.01901784 -0.03282454
-0.07901629 0.060098097 0.01647873 -0.09426405 0.08048268 -0.15636091 -0.10840721 0.10746134
0.12725514 -0.039301883 -0.07821291 0.06424787 -0.18012546 0.037053097 0.09439484 0.11043649
0.09875066 0.030719422 -0.062950484 -0.003353935 0.09436168 0.16418119 0.059730187 0.023469256
-0.18576545 0.036626734 -0.10951229 -0.10908129 0.09939299 -0.051605813 -0.043215655 0.054763645
0.11206231 0.17100306 0.061017755 0.09552048 0.15168573 0.032321747 -0.12639491 -0.037067953
-0.10132891 0.045464482 -0.08819842 -0.063940994 -0.08962778 -0.15109466 0.058294028 -0.14144246
-0.02241276 -0.112598106 -0.06560238 0.0015866887 0.13202529 0.118810885 -0.03622479 0.012302523
0.0022356198 0.13804978 0.068035424 -0.019955212 0.05807074 -0.1733808 0.03200468 0.15732689
-0.014518635 0.08315106 0.10852572 -0.061758034 0.06895718 0.14446126 0.0777143 -0.012634422
-0.09892107 -0.15123582 -0.0041062306 -0.16797641 -0.17059325 -0.072762854 -0.106580526 0.1834427
-0.03379851 -0.039809093 0.09489044 0.081076056 0.15128385 0.0071002105 -0.002042027 -0.14645264
-0.18164647 -0.08642502 0.03596589 -0.03930629 -0.022998145 0.0139489975 -0.02772414 0.06698719
0.09405018 0.12733608 -0.02780891 0.044977937 -0.17360066 0.00034784575 -0.069257185 0.10485601
-0.10209488 -0.058060203 0.06083107 -0.14260474 0.11602025 0.014931564 0.16123979 0.11122914
00000000: 8a82 c4bd c5b5 073e bfed 003e 2abf f53d
00000010: 71ff 6dbd 3d4c 95bc fa9b dcbd ae27 e6bc
00000020: 0371 fc3d 7da0 353b fcff 213d 9831 19be
00000030: 5f40 2b3d 9e10 5d3d 43cd 82bd ed15 fa3d
00000040: 54cc ca3d 83a5 c7bd 652c c4bd deff 0c3d
00000050: fe4a 05be ee70 c0bd 7fdc b83d 2759 3bbd
00000060: 92a2 afbc f217 bebd 40cc 9e3d eb20 c53d
00000070: 0d55 6d3d 4055 10be 9e65 afbc cdd5 f63d
00000080: 30b2 bd3d d759 7cbc bb9b fe3d 0f54 4e3b
00000090: ca33 9f3c 41ec 003e ec7c ca3d 1628 f5bd
000000a0: fe7b 06be 9386 2b3d 88b3 e33d d5cf e13b
000000b0: 9910 153e 0b28 f0bc 61cb e3bd 4888 a7bc
000000c0: 6d4d 4ebe 5aa8 0e3c 646f 72bd f543 753e
000000d0: 8d18 2dbd a62c be3c e8da 1abe f920 a43c
000000e0: 21b0 ccbc 4aa4 fe3d 71b3 0f3e 7dc1 13be
000000f0: 052c 68be 6dce 5fbd b969 2e3d e008 d43d
00000100: ac17 ed3d 8007 9dbd 5d7c 5e3e 874a ae3d
00000110: 3ea7 ecbd 9125 113e d038 2cbd c171 13be
00000120: d376 bcbd 33e1 45be 7464 09be 5647 813b
00000130: fe81 72bc b789 8a3d 946d e43d 5f3b 0ebe
00000140: 53c5 edbd b578 b23c d3c4 453e 160e f8bd
00000150: e32f be3b 3443 a93c 4732 4dbd 605d 2bbd
00000160: 1d9c ee3c b094 1c3e d6d3 ee3c 6ba4 2a3e
00000170: e6e3 c23d 80b4 a2bc e8e6 40be c356 8f3d
00000180: 723a edbc ab81 fbbd 5cf2 26bd d6bb df3d
00000190: 9e18 453d 5a85 c63d 7026 c33d b316 1d3d
000001a0: aaf0 153e 2440 1e3c 9aac 95bc 3c03 c1bd
000001b0: 80c7 ae3d 815a 793d a6b4 fc3d c5a8 b3bc
000001c0: 6158 07be bb42 2fbb 5a1d b33c 1757 bbbd
000001d0: 604b 2f3c 32f0 f8bb 47e4 ef3d 4d01 94bc
000001e0: 5779 85bd 4ab4 b13d 29ca d13c efce 24bd
000001f0: 3e7f 703d baeb 103e 30c3 af3d ada2 e2bb
00000200: 44e8 df3d 89cb 4ebd a992 f63d 13e0 d2bd
00000210: 4faf f83a c7d2 fd3d 696d bb3c f20f 26bd
00000220: 43e1 a23d 88ce d43d 5e41 ddbd 0490 193c
00000230: 6524 b6bd 88e3 20bd 4dcb 9bbc 0673 06bd
00000240: 4bd3 a1bd 6c29 763d 67fe 863c 830d c1bd
00000250: 1ad4 a43d 131d 20be 9904 debd b114 dc3d
00000260: 2c4f 023e 03fb 20bd 172e a0bd 6394 833d
00000270: cf72 38be fdc4 173d 1552 c13d 872c e23d
00000280: c93d ca3d 4ca7 fb3c 2fec 80bd b1cd 5bbb
00000290: b240 c13d 1d1f 283e a4a7 743d 9942 c03c
000002a0: 4c39 3ebe ea05 163d fb47 e0bd 0366 dfbd
000002b0: 8d8e cb3d 9e60 53bd e602 31bd d84f 603d
000002c0: ed80 e53d 6d1b 2f3e c1ed 793d 3ea0 c33d
000002d0: 8153 1b3e cf63 043d ab6d 01be 91d4 17bd
000002e0: 8885 cfbd f738 3a3d 60a1 b4bd 7ff3 82bd
000002f0: c58e b7bd 8fb8 1abe b8c5 6e3d 4bd6 10be
00000300: f79a b7bc d699 e6bd 8a5a 86bd 70f8 cf3a
00000310: a331 073e 1f53 f33d 7260 14bd 8590 493c
00000320: 7a83 123b ec5c 0d3e 2856 8b3d 1d79 a3bc
00000330: 96db 6d3d bd8a 31be 5717 033d 4d1a 213e
00000340: 92df 6dbc 1a4b aa3d bc42 de3d fef5 7cbd
00000350: 6c39 8d3d a7ed 133e ad28 9f3d 9b00 4fbc
00000360: 2197 cabd 90dd 1abe 8f8d 86bb 0202 2cbe
00000370: ffaf 2ebe b104 95bd e446 dabd 67d8 3b3e
00000380: 4e70 0abd dc0e 23bd eb55 c23d 340b a63d
00000390: 27ea 1a3e e2a8 e83b 87d3 05bb aef7 15be
000003a0: 8801 3abe 9aff b0bd f850 133d a2ff 20bd
000003b0: 9b66 bcbc 568a 643c bc1d e3bc 9430 893d
000003c0: 619d c03d 6464 023e 83cf e3bc c93a 383d
000003d0: 5fc4 31be 115f b639 b6d6 8dbd bfbe d63d
000003e0: 1f17 d1bd 89d0 6dbd 002a 793d fa06 12be
000003f0: 069c ed3d 85a3 743c 0b1c 253e 1acc e33d

conv_t2.bias f4 [16]
0.14319076 -0.14411166 -0.11401466 0.08307938 0.072451726 0.09687034 0.08976684 -0.13012803
-0.0062469533 -0.10049904 0.02718168 0.057515886 -0.13482878 -0.050246418 0.04966355 0.061324015
00000000: 99a0 123e 0292 13be 8580 e9bd 8625 aa3d
00000010: 9261 943d f563 c63d add7 b73d 4840 05be
00000020: 3eb3 ccbb 71d2 cdbd 1dac de3c c795 6b3d
00000030: 8e10 0abe 30cf 4dbd 026c 4b3d e42e 7b3d

conv_t3.weight f4 [16, 1, 3]
-0.36644882 -0.04982015 -0.3953352 0.23838341 0.16843551 0.1805306 -0.049636524 0.029752402
-0.45563397 0.5597264 -0.016600532 0.029700968 0.022806391 -0.6362738 0.117727235 0.54599607
0.37618992 0.12802114 0.19863418 0.1247758 0.03505602 0.27054456 0.2550418 0.20731534
-0.3728157 -0.15674318 0.3462684 0.33379 -0.35522366 0.126699 -0.3846983 0.18084979
0.2538417 -0.27817914 0.48576412 0.45393932 0.4207981 0.20994994 0.2514588 -0.046546113
-0.39243838 0.1339878 -0.25927445 0.110529006 -0.31376386 -0.26126698 -0.5277442 -0.17377198
00000000: 2e9f bbbe 3710 4cbd 6069 cabe c81a 743e
00000010: 5c7a 2c3e 03dd 383e ab4f 4bbd 4fbb f33c
00000020: db48 e9be 3b4a 0f3f d7fd 87bc 724f f33c
00000030: 78d4 ba3c d7e2 22bf fa1a f13d 66c6 0b3f
00000040: f79b c03e f917 033e c266 4b3e 748a ff3d
00000050: e796 0f3d d184 8a3e d794 823e 794a 543e
00000060: b3e1 bebe 4981 20be 174a b13e 86e6 aa3e
00000070: e0df b5be 62bd 013e 2df7 c4be b030 393e
00000080: 8af7 813e 7f6d 8ebe 13b6 f83e bc6a e83e
00000090: d972 d73e 1efd 563e 35bf 803e 23a7 3ebd
000000a0: afed c8be 1934 093e 9fbf 84be 085d e23d
000000b0: a8a5 a0be c9c4 85be 3e1a 07bf 48f1 31be
