Models/LatentVector13.ckpt (torch, 18274 bytes, 10 tensors)

conv1.weight f4 [16, 1, 3]
0	0xbe5a772e	-0.21334526
1	0xbe088c99	-0.13334884
2	0x3e23f7f6	0.16012558
3	0xbd13a8b1	-0.03604955
4	0xbecafcf9	-0.39646128
5	0x3f164705	0.5870212
6	0xbeaeb508	-0.3412249
7	0xbdef003e	-0.11669968
8	0xba0b60c0	-0.0005316846
9	0xbdd50c7a	-0.1040277
10	0xbf214a59	-0.6300407
11	0x3e2b85c3	0.16750245
12	0xbe50567f	-0.20345496
13	0xbe670978	-0.22562206
14	0x3e5608f5	0.20901854
15	0xbe6f597a	-0.23373976
16	0xbe662ff7	-0.22479235
17	0xbe1ba6f7	-0.15200411
18	0xbdca59eb	-0.09880432
19	0xbe3033cd	-0.1720726
20	0xbdab3294	-0.083592564
21	0x3e01a1aa	0.12659326
22	0xbf008f4b	-0.5021865
23	0xbec26168	-0.3796494
24	0xbd588d55	-0.05286916
25	0x3d274429	0.040836487
26	0x3e8c4fab	0.27404532
27	0xbec085ea	-0.37602168
28	0x3e82c742	0.25542647
29	0x3ec9e89c	0.3943528
30	0x3eb4a92f	0.35285327
31	0xbefd2030	-0.4943862
32	0xbe31c7b9	-0.17361344
33	0xbecb0a8d	-0.39656487
34	0xbe9aa972	-0.30207402
35	0x3eb86332	0.3601318
36	0xbe3f8c07	-0.1870576
37	0x3e08b2e5	0.13349493
38	0xbee53424	-0.44766343
39	0x3e3f1425	0.18660028
40	0xbe690575	-0.22755988
41	0x3ed12825	0.4085094
42	0xbe4df38d	-0.20112438
43	0xbdda2de2	-0.10653283
44	0xbeedfce1	-0.46481994
45	0xbe034cad	-0.12822218
46	0x3ee2f429	0.44326904
47	0x3e1432f2	0.14472559

conv1.bias f4 [16]
0	0xbea029d5	-0.31281915
1	0xbc226b8d	-0.009913337
2	0xbd16225b	-0.036653858
3	0xbee9f747	-0.4569647
4	0x3ee9dfb0	0.45678473
5	0x3d3c1c3d	0.045925368
6	0x3e4cf32a	0.20014635
7	0xbe5e5fba	-0.21716204
8	0xbe954c4a	-0.29159766
9	0x3d42ee94	0.047590807
10	0x3e66605d	0.22497697
11	0x3e182905	0.14859398
12	0xbe8e660d	-0.27812234
13	0x3f0f6bfd	0.5602415
14	0xbd337168	-0.043809325
15	0xbec1cc94	-0.37851393

conv2.weight f4 [32, 16, 3]
0	0xbd8ddabb	-0.06926485
1	0x3e153694	0.14571601
2	0x3bf684bb	0.007523147
3	0x3caa6dbe	0.020804282
4	0xbd7962c4	-0.060885206
5	0xbc37e014	-0.011222858
6	0xbe19b1f2	-0.15009287
7	0xbddeee02	-0.1088524
8	0x3de3a435	0.111153044
9	0x3e016542	0.12636283
10	0x3e18177d	0.1485271
11	0xbdb963d5	-0.090522446
12	0x3d96002d	0.07324252
13	0xbdbf5d13	-0.093439244
14	0x3dab4d53	0.08364358
15	0x3de3c20a	0.111209944
16	0x3e1d290d	0.15347691
17	0x3e1e3e39	0.15453424
18	0x3dad7c32	0.08470954
19	0x3c514e76	0.012775054
20	0x3da6daa8	0.08147174
21	0xbd545354	-0.05183728
22	0x3da541d9	0.080692
23	0xbd01e166	-0.031709097
24	0xba846c1a	-0.0010103018
25	0xbe0083d2	-0.12550285
26	0xbd1664ad	-0.036717106
27	0xbdcabe98	-0.09899634
28	0xbdb122f8	-0.08649248
29	0xbde1c469	-0.110237904
30	0xbdf73c3f	-0.12072038
31	0x3c99e779	0.018787133
32	0x3dc512dd	0.096227385
33	0x3dd915c0	0.105998516
34	0x3da1e014	0.07904068
35	0xbd83c3f2	-0.06433858
36	0xbe149612	-0.14510372
37	0x3d808bc9	0.06276662
38	0x3dba166a	0.090863064
39	0xbe00a386	-0.12562379
40	0x3d3b1829	0.045677338
41	0x3deba1f5	0.115055
42	0xbc4e3656	-0.012586197
43	0xbd9f810e	-0.07788287
44	0x3e05c767	0.13064347
45	0x3d869956	0.06572215
46	0x3dc239a1	0.09483648
47	0xbdc83b18	-0.09776896
48	0x3e5af5a5	0.21382768
49	0x3ccb98b0	0.02485308
50	0x3e84eb61	0.2596083
51	0x3e195697	0.14974438
52	0x3ea2abe9	0.31771782
53	0x3ede032f	0.43361804
54	0xbda189e4	-0.07887629
55	0xbe233556	-0.15938315
56	0xbdd0fcc2	-0.1020446
57	0x3d83da84	0.06438163
58	0xbcc4a0b5	-0.024002412
59	0x3d55be02	0.05218316
60	0xbd60bc18	-0.05486688
61	0xbe4e3476	-0.201372
62	0xbdf3c467	-0.11902695
63	0xbe8706f7	-0.263725
64	0xbddeec33	-0.10884895
65	0xbe276596	-0.16347346
66	0xbe441043	-0.19146828
67	0xbea6b548	-0.32560182
68	0xbec14650	-0.37748957
69	0x3d632ad3	0.055460762
70	0xbd99e36c	-0.075140804
71	0x3dfa25ef	0.122142665
72	0x3d403b58	0.046931595
73	0x3e7fb15e	0.24970004
74	0x3eaa8a3f	0.33308598
75	0x3e0e469c	0.13894123
76	0x3e3515f7	0.1768416
77	0xbb4a201b	-0.003084189
78	0xbd831a34	-0.06401482
79	0xbe6e3e5d	-0.23265977
80	0xbeacc229	-0.33741882
81	0xbdc34672	-0.09534921
82	0xbe9b027b	-0.3027533
83	0xbe80d5ef	-0.25163218
84	0x3e7651fe	0.24054715
85	0xbc358e4a	-0.011081288
86	0xbccd9492	-0.025095258
87	0xbdf03052	-0.11727966
88	0xbe1b3314	-0.15156204
89	0xbdc11baf	-0.09429108
90	0xbe49b53c	-0.19698042
91	0xbdb9489b	-0.090470515
92	0xbe40b52e	-0.18819115
93	0x3e1b9f8e	0.15197584
94	0x3dc7a5bd	0.09748409
95	0x3e9ee447	0.31033537
96	0x3d597083	0.053085815
97	0xbdea67fe	-0.11445616
98	0x3de8f7fd	0.11375425
99	0x3d393e7e	0.045225613
100	0x3e03f5ea	0.12886778
101	0x3e0983e1	0.13429214
102	0x3df0d6c3	0.117597125
103	0x3e047470	0.12935042
104	0x3cd61013	0.026130712
105	0xbdbe6f5a	-0.092985824
106	0x3dfbb2f6	0.122899935
107	0xbab24e4a	-0.0013603654
108	0x3d8fcca3	0.07021453
109	0x3ddff530	0.10935438
110	0x3df09981	0.117480285
111	0xbdb55459	-0.08853979
112	0x3d72f862	0.059318908
113	0xbe4e9655	-0.20174535
114	0x3ccb8e1b	0.024848035
115	0xbe07945a	-0.13240185
116	0xbdaacc5e	-0.08339761
117	0x3be2a573	0.0069166957
118	0xbd7d4652	-0.06183464
119	0xbd83b8a6	-0.06431703
120	0x3ca98be1	0.020696582
121	0x3e22559c	0.1585297
122	0x3dd18a2b	0.102314316
123	0x3e07ef53	0.13274889
124	0x3e257ca1	0.16160823
125	0x3e348b7a	0.17631331
126	0xbd28aa73	-0.041178178
127	0xbcee2c65	-0.029073903
128	0x3c192f9f	0.009349733
129	0xbd825b44	-0.06365064
130	0xbde9a0dd	-0.11407635
131	0xbc4640be	-0.012100397
132	0xbd03f5ea	-0.032216944
133	0xbc3655ce	-0.011128856
134	0xbd6fdfc4	-0.05856301
135	0x3c1e6032	0.009666489
136	0x3dc03256	0.09384601
137	0xbd2747b5	-0.04083987
138	0x3e1bf353	0.1522954
139	0x3d8943dc	0.06702396
140	0xbe393fb5	-0.18090709
141	0xbddb3ffd	-0.10705564
142	0xbdc1ac01	-0.09456635
143	0xbd61be64	-0.05511321
144	0xbd8b0e36	-0.0678982
145	0xbcc771ab	-0.024346193
146	0xbd50fc58	-0.051021904
147	0xbc767296	-0.015041968
148	0x3d225585	0.03963234
149	0xbcad34af	-0.021143286
150	0x3dcc109e	0.09964107
151	0xbde4c7bd	-0.111709096
152	0xbe3227f3	-0.17398052
153	0x3d255276	0.040361844
154	0xbce9c2e8	-0.028535321
155	0x3dad5c3f	0.0846486
156	0x3dc626c7	0.09675365
157	0x3e0cf762	0.13766244
158	0xbdd0c83c	-0.10194442
159	0x3c4a67f2	0.012353884
160	0x3cbb1eb6	0.022841793
161	0xbe388c73	-0.18022327
162	0x3de1d163	0.110262655
163	0x3d9ffe49	0.07812173
164	0xbd04b7bb	-0.03240178
165	0x3d1450a7	0.03620973
166	0xbdb39dea	-0.08770354
167	0xbe2fad75	-0.17156012
168	0x3d12fece	0.035887532
169	0x3d2e2d21	0.042523507
170	0xbdc0b6c3	-0.09409859
171	0x3df62c97	0.120202236
172	0xbda011ba	-0.07815881
173	0x3e360c14	0.17778045
174	0x3e05b972	0.13059023
175	0x3d0fed53	0.03513844
176	0xbdcba3c5	-0.09943346
177	0x3d7eaac2	0.062174566
178	0x3ab2c21d	0.0013638173
179	0x3be14c87	0.006875578
180	0x3cea195b	0.028576544
181	0x3db1c8ad	0.08680854
182	0xbdb0c432	-0.08631171
183	0xbca6ae56	-0.020346802
184	0x3d5971a3	0.053086888
185	0x3cf148a6	0.029453587
186	0x3d95396e	0.072863445
187	0xbe08d06f	-0.13360761
188	0xbd8ed176	-0.06973545
189	0x3d049d4c	0.032376572
190	0xbd03819d	-0.03210603
191	0x3ddaadee	0.10677706
192	0x3d32d5a7	0.043660786
193	0xbdf0936e	-0.1174687
194	0xbb04b6d3	-0.0020250573
195	0xbdcff260	-0.10153651
196	0x3c9ca4d6	0.019121569
197	0x3e232182	0.15930751
198	0xbce80f30	-0.028327554
199	0xb7409a83	-1.1480067e-05
200	0xbcfe0515	-0.031008283
201	0xbc9de9e0	-0.01927656
202	0x3e17fe60	0.1484313
203	0xbcf7cd8f	-0.030249385
204	0x3dc0f686	0.094220206
205	0x3ce50f40	0.027961373
206	0xbe051b43	-0.12998681
207	0x3d9e461e	0.077282175
208	0x3dbd3c51	0.0924002
209	0xbe295c94	-0.16539222
210	0xbd8c32ac	-0.068456024
211	0x3e04bcc8	0.1296264
212	0x3da1309f	0.07870602
213	0xbd668e09	-0.0562878
214	0x3dcb64f6	0.09931366
215	0xbd529aa0	-0.051416993
216	0xbe076b41	-0.13224508
217	0x3cb54ef8	0.022132382
218	0x3d8e061e	0.069347605
219	0x3bd6c838	0.0065546297
220	0x3d6a8e23	0.05726446
221	0xbd0eefc0	-0.034896612
222	0x3d6f0304	0.058352485
223	0x3dd8ae22	0.10580088
224	0x3d291b62	0.04128588
225	0x3dd5330e	0.104101285
226	0x3d5c4247	0.053774145
227	0xbddca687	-0.1077395
228	0xbb3ed45e	-0.002911828
229	0x39d1ac7f	0.00039992106
230	0xbdb2d0f9	-0.087312646
231	0xbdfca401	-0.12335969
232	0x3db1c3be	0.08679913
233	0x3dc10bc7	0.094260745
234	0xbda40b48	-0.08009964
235	0x3d255274	0.040361837
236	0x3c1133cd	0.008862448
237	0x3e114ac9	0.14188685
238	0x3dc1dbb0	0.0946573
239	0x3e2262cd	0.15858002
240	0xbd4a5605	-0.04939844
241	0x3dbedc1c	0.09319326
242	0x3dd92315	0.106023945
243	0xbdcae823	-0.09907558
244	0xbd043505	-0.032277126
245	0x3e05de53	0.13073091
246	0x3da75c2d	0.08171878
247	0xbde59445	-0.11209921
248	0xbd4abb3c	-0.049494967
249	0xbc15fb41	-0.009154142
250	0x3cad6b4e	0.02116933
251	0xbdcaa537	-0.098947935
252	0x3db3bbf1	0.08776081
253	0x3dcc1c92	0.09966387
254	0xbdc88a8b	-0.0979205
255	0xbd2b6cd4	-0.041851833

conv2.bias f4 [32]
0	0xbd88ccd3	-0.06679692
1	0xbe600f54	-0.21880847
2	0x3c2db7e4	0.010602925
3	0x3df247d4	0.118301064
4	0x3cdab495	0.026697436
5	0x3dae0bd2	0.08498348
6	0x3ce7c1ed	0.028290713
7	0x3e013bfb	0.12620537
8	0x3d872a7e	0.065999016
9	0x3d8f8805	0.070083655
10	0xbcbf9ffa	-0.023391712
11	0xbe04d0a9	-0.12970223
12	0xbd9e3fe9	-0.07727034
13	0x3d18bd5a	0.037289955
14	0x3dc644fe	0.09681128
15	0xbdaa2ecc	-0.08309707
16	0x3e041274	0.12897664
17	0x3c2787a8	0.010225214
18	0xbc2a6e86	-0.010402327
19	0x3c516474	0.012780298
20	0xbccc8bab	-0.024968943
21	0x3db4b373	0.0882329
22	0xbb769d43	-0.0037630356
23	0x3dcc3f42	0.09973003
24	0xbd87a2a4	-0.06622818
25	0xbd9f3a72	-0.077748194
26	0xbd2dce3a	-0.042433
27	0x3de08c74	0.10964289
28	0x3cff2c14	0.031148948
29	0x3d116b60	0.03550279
30	0xbe16481b	-0.14675944
31	0x3c361e87	0.011115677

conv3.weight f4 [1, 32, 3]
0	0xbd946a9f	-0.07246899
1	0xbe017e2f	-0.12645791
2	0xbca7c4c9	-0.020479577
3	0x3d10fa7f	0.03539514
4	0x3e5e2d6b	0.21697013
5	0x3d5c0b99	0.053721998
6	0x3d314dd7	0.043287124
7	0x3da4bf8d	0.08044348
8	0xbd77dcaf	-0.060513195
9	0x3d8192b3	0.06326809
10	0x39b8c21b	0.00035239835
11	0x3d6ffce1	0.058590773
12	0x3dd91797	0.106002025
13	0xbccc4619	-0.024935769
14	0xbcaeffcf	-0.021362213
15	0x3dba4d98	0.09096831
16	0x3cfcbbc2	0.030851249
17	0x3a743a4a	0.0009316547
18	0x3d9e237f	0.07721614
19	0xbd2fe27d	-0.042940605
20	0x3be25145	0.0069066607
21	0x3d9a57c1	0.07536269
22	0x3d7b5b30	0.06136626
23	0xbd307971	-0.043084566
24	0x3d9b30d2	0.07577671
25	0xbd9e4ecc	-0.07729873
26	0xbd6342b3	-0.05548353
27	0x3dc0d2dd	0.09415219
28	0xbad7d84c	-0.001646766
29	0xbd22db8b	-0.039760154
30	0x3bf6227f	0.0075114365
31	0xbca0ecfd	-0.019644255
32	0xbdd8a6dd	-0.10578702
33	0xbd8f23dc	-0.069892615
34	0xbdef9384	-0.11698058
35	0x3c0019e4	0.007818673
36	0xbd8d0503	-0.068857215
37	0xbb90e75e	-0.0044221124
38	0xbd126471	-0.03574032
39	0xbd3a8cc1	-0.04554439
40	0xbce43140	-0.027855515
41	0xbd9b99c4	-0.07597688
42	0xbd43c00a	-0.047790565
43	0xbd120838	-0.03565237
44	0xbdff7f09	-0.12475402
45	0xbda50bb1	-0.080588706
46	0x3df2205e	0.1182258
47	0x3d514665	0.051092524
48	0xbd3b5327	-0.045733597
49	0x3ccb5152	0.02481905
50	0x3dd6b078	0.104828775
51	0xbd8f6381	-0.07001401
52	0xbda12eaf	-0.07870232
53	0xbdd03fa9	-0.10168392
54	0xbc2d55b7	-0.010579518
55	0xbcdee38f	-0.027208118
56	0xbdd4f22f	-0.10397755
57	0x3d907a61	0.07054592
58	0xbd613178	-0.054978818
59	0x3dfd3668	0.12363893
60	0xbda342f1	-0.079717524
61	0xbd4d1066	-0.050064467
62	0xbc537b8c	-0.012907874
63	0xbcd4efa0	-0.025993168
64	0x3e019751	0.12655379
65	0xbd2e77db	-0.04259477
66	0x3c2c3580	0.010510802
67	0xbdf38604	-0.11890796
68	0xbc62b5da	-0.013837302
69	0x3db83648	0.08994728
70	0x3de2feb5	0.11083738
71	0x3cf78ec2	0.03021944
72	0xbe1d184a	-0.15341297
73	0xbc288406	-0.010285383
74	0xbda8a978	-0.082354486
75	0x3d8f57d8	0.06999177
76	0xbd9ef3ed	-0.07761369
77	0xbd990ea4	-0.074734956
78	0xbda9f172	-0.08298005
79	0x3e1c0213	0.15235166
80	0x3dc2c968	0.095110714
81	0xbd8fde20	-0.07024789
82	0xbcd31b3e	-0.025769826
83	0xbda688df	-0.08131575
84	0x3d23c526	0.039982937
85	0x3da8aaa5	0.08235673
86	0xbc8c80a2	-0.01715118
87	0x3c19b29c	0.009380963
88	0xbdc78514	-0.097421795
89	0xbc68b792	-0.014203923
90	0xbda2dbdc	-0.07952091
91	0xbe73f639	-0.23824395
92	0xbe22393e	-0.15842149
93	0x3d75105b	0.05983005
94	0x3d770953	0.060311627
95	0x3dc4f813	0.09617629

conv_t1.weight f4 [1, 32, 3]
0	0x3da350b7	0.079743795
1	0x3e010962	0.12601236
2	0x3d888887	0.066666655
3	0x3d30493a	0.043038584
4	0xbce7bbd2	-0.028287802
5	0xbdcf78e8	-0.10130483
6	0x3d740123	0.059571397
7	0x3d8e09fc	0.06935498
8	0x3dbc2281	0.091862686
9	0xbe0ede54	-0.13951999
10	0xbce8e7d9	-0.028430866
11	0xbcdd77c6	-0.027034651
12	0x3dd79613	0.10526671
13	0x3dfffeb8	0.124997556
14	0xbc49c40f	-0.01231481
15	0x3d24ba41	0.040216688
16	0x3b6f4e4c	0.0036515174
17	0xbe1632e5	-0.14667852
18	0x3e0af986	0.13571748
19	0x3e06aab8	0.13151062
20	0x3d93d492	0.07218279
21	0xbd8839b3	-0.0665163
22	0xbd950fe3	-0.07278421
23	0xbdbc20d4	-0.09185949
24	0x3cd56762	0.026050273
25	0x3e2e2d5f	0.17009495
26	0x3dcf47fb	0.10121151
27	0x3d544142	0.051820047
28	0xbd8b1b05	-0.06792263
29	0x3d95e013	0.073181294
30	0xbd986e26	-0.07442884
31	0x3ca23f93	0.019805705
32	0x3d8890b9	0.06668229
33	0x3da19de8	0.07891446
34	0x3e4a4c16	0.19755587
35	0x3d52cb5a	0.051463462
36	0x3de769b9	0.11299462
37	0x3d79b199	0.060960386
38	0x3e070163	0.13184123
39	0x3dbffa75	0.09373943
40	0x3e39e6e8	0.1815449
41	0x3cb17982	0.021664385
42	0x3e16a850	0.14712644
43	0x3e535454	0.20637637
44	0xbce2024d	-0.027588988
45	0x3df37ccc	0.118890375
46	0xbd884162	-0.06653096
47	0xbd89bfbd	-0.06726024
48	0xbe080da5	-0.13286455
49	0xbd47a03a	-0.04873679
50	0xbddab76f	-0.106795184
51	0xbc929192	-0.017891679
52	0xbba7b88a	-0.0051184343
53	0x3da04c0f	0.07827007
54	0xbe0aeb1a	-0.13566247
55	0xbdf85681	-0.12125874
56	0xbbce92b4	-0.0063041095
57	0x3d94af73	0.07260027
58	0x3db39209	0.08768088
59	0x3d9f188e	0.07768355
60	0xbe00c5b3	-0.12575416
61	0xbe432702	-0.19057849
62	0xbd5220b7	-0.05130073
63	0xbdcd44cb	-0.10022887
64	0xbcb3837e	-0.021913286
65	0xbdeb887b	-0.11500641
66	0x3d56d0df	0.05244529
67	0x3e22aee5	0.1588703
68	0xbd8eb9d5	-0.069690384
69	0x386479ff	5.4473054e-05
70	0xbe302184	-0.17200285
71	0xbd982c97	-0.0743038
72	0xbded4941	-0.11586238
73	0xbe2a2f6f	-0.16619657
74	0xbdba9a18	-0.09111422
75	0xbb07828c	-0.0020677177
76	0x3e360f1d	0.17779203
77	0x3d6cd846	0.057823442
78	0x3e1cec33	0.15324478
79	0x3e1d9c7d	0.15391727
80	0x3de1841c	0.11011526
81	0x3dc7574e	0.09733449
82	0x3e5c1c5c	0.21495193
83	0x3e26b0bd	0.16278358
84	0x3e1927ae	0.14956543
85	0x3d3157b8	0.043296546
86	0x3cadbaba	0.021207202
87	0xbd2ef9ad	-0.042718578
88	0x3e16e3cd	0.14735337
89	0x3d052e73	0.032515
90	0x3d791fec	0.06082146
91	0x3a284d4b	0.0006420209
92	0xbd466c3a	-0.048443057
93	0xbdd4d52a	-0.1039222
94	0xbe1226f6	-0.14272675
95	0x3ca6f18b	0.020378849

conv_t1.bias f4 [32]
0	0xbc967e37	-0.01837073
1	0xbda6ce6f	-0.08144843
2	0x3de6177a	0.112349465
3	0xbd499c3a	-0.049221255
4	0xbc83cc4e	-0.016088631
5	0x3d1ceaa3	0.038309705
6	0x3d607d9c	0.05480729
7	0xbdb410f6	-0.087922975
8	0x3d8f63e5	0.07001475
9	0x3d50306a	0.05082742
10	0xbdc70e5d	-0.097195365
11	0xbb778c24	-0.003777274
12	0x3d5d0174	0.053956464
13	0x3d02d6eb	0.031943243
14	0x3e116a5b	0.14200728
15	0xbd3ced35	-0.046124656
16	0x3d093628	0.033498913
17	0xbcac2aab	-0.02101644
18	0xbdb25b02	-0.087087646
19	0x3dd08925	0.10182408
20	0xbda21bf1	-0.07915486
21	0xbcfc5014	-0.030799903
22	0x3d340091	0.043945853
23	0xbe012e7f	-0.12615393
24	0xbdfbaa41	-0.12288333
25	0x3da59cc0	0.08086538
26	0x3de53c08	0.11193091
27	0x3ce8c0fc	0.028412335
28	0x3ddfa861	0.109207876
29	0x3d8ddd47	0.06926971
30	0xbb2f6033	-0.002676022
31	0xbd326947	-0.04355743

conv_t2.weight f4 [32, 16, 3]
0	0x3e59b4c2	0.2126036
1	0x3e144525	0.14479502
2	0x3d184d47	0.037183072
3	0x3dbcbe86	0.09216027
4	0xbe39f20d	-0.18158741
5	0x3cbaf430	0.022821516
6	0x3cd5356e	0.026026454
7	0xbd9d8a89	-0.07692439
8	0x3d086e0e	0.03330808
9	0x3d6c6928	0.057717472
10	0xbd30edea	-0.043195643
11	0xbdfad7f0	-0.12248218
12	0xbda2479e	-0.07923816
13	0x3d688442	0.056766756
14	0xbcae5027	-0.021278454
15	0xbdd16788	-0.10224825
16	0x3e403733	0.18771057
17	0x3ca3b49f	0.019983588
18	0xbdef0bad	-0.11672149
19	0xbaac23ae	-0.0013133192
20	0x3d547a8d	0.051874686
21	0xbd5c6b21	-0.053813104
22	0x3e0d0901	0.13772966
23	0xbda08962	-0.07838704
24	0xbbf82683	-0.0075729503
25	0x3d8bd5be	0.068278775
26	0x3dac6d29	0.08419258
27	0x3d08f1e8	0.033433825
28	0xbd9c7950	-0.07640326
29	0x3ce6fa65	0.02819557
30	0x3d29c96f	0.041451868
31	0xbcdd6bdb	-0.027028969
32	0xbd18ac8d	-0.037273932
33	0x3c08fc02	0.008360865
34	0xbde93016	-0.11386125
35	0xbdb2cf36	-0.087309286
36	0xbdf28f6c	-0.11843762
37	0xbe903d45	-0.28171745
38	0xbe02585a	-0.12729016
39	0x3d3d2518	0.046177953
40	0xbdcd5bd5	-0.10027281
41	0xbe26d4fd	-0.16292186
42	0xbdb7ebeb	-0.08980545
43	0xbc6d36ec	-0.014478426
44	0xbd3f3182	-0.046678074
45	0xbd4ac9d9	-0.049508903
46	0xbde1dbf2	-0.11028279
47	0xbd1f261e	-0.03885471
48	0x3d1074ca	0.03526763
49	0x3d4d26f4	0.050085977
50	0x3e20b8f1	0.1569555
51	0x3e01b4f1	0.1266668
52	0x3e2fbef9	0.17162694
53	0x3ac92fc1	0.0015349315
54	0x3d921686	0.07133202
55	0x3e75fe65	0.24022825
56	0xbc5fe879	-0.013666266
57	0x3dcda2e5	0.10040835
58	0x3d373d4b	0.044736188
59	0xbd1ba5bc	-0.037999853
60	0xbe16f7f9	-0.14743032
61	0x3cc7d756	0.024394672
62	0x3da884c3	0.08228447
63	0x3def383b	0.11680647
64	0xbda76252	-0.0817305
65	0x3d5e02e3	0.05420197
66	0x3d220dd1	0.039563958
67	0xbd283001	-0.041061405
68	0xbdb34c55	-0.087547936
69	0x3d2f1b39	0.04275057
70	0xbe04ceaf	-0.12969469
71	0x3dd8ea70	0.105915904
72	0x3d2a576b	0.041587275
73	0x3d349ef9	0.04409692
74	0x3d4a231d	0.049349893
75	0x3d72e396	0.059299074
76	0x3d73deb8	0.059538573
77	0x3d12a9a0	0.0358063
78	0xbcd3e2e7	-0.025865031
79	0xbcb26669	-0.021777349
80	0xbcaf907d	-0.021431202
81	0x3ddb7699	0.1071598
82	0x3e14481d	0.14480634
83	0x3dd7c482	0.10535528
84	0x3d46926f	0.048479494
85	0x3ddda4bf	0.108224384
86	0xbd6cd9b6	-0.057824813
87	0x3daa69aa	0.08320935
88	0xbde1b63e	-0.11021088
89	0xbe0904bd	-0.13380714
90	0x3e0e80db	0.13916342
91	0x3d93e336	0.072210714
92	0xbd86f98e	-0.065905675
93	0xbd8cbe44	-0.06872228
94	0xbd4d707a	-0.050156094
95	0x3df059dd	0.1173589
96	0xbdd416f3	-0.1035594
97	0x3e370cb5	0.17875941
98	0x3def159a	0.11674042
99	0xbca02bb0	-0.019552082
100	0xbd8aec20	-0.067833185
101	0x3daf301d	0.08554099
102	0x3c61ae64	0.013774488
103	0x3d9f1d85	0.07769302
104	0x3d6c8ef2	0.05775351
105	0xbdfbf48c	-0.12302503
106	0x3cf793a4	0.030221768
107	0x3d375bac	0.04476516
108	0xbd9c9983	-0.076464675
109	0x3dffb749	0.12486131
110	0xbd5692ac	-0.05238597
111	0xbd781095	-0.06056269
112	0x3d64aede	0.05583083
113	0x3aabd128	0.0013108598
114	0xbd8adb93	-0.06780162
115	0xbe1b01eb	-0.1513745
116	0x3d5700b3	0.0524909
117	0x3e30ab5d	0.1725287
118	0x3cc5e325	0.024156163
119	0xbd934d2d	-0.071924545
120	0xbd0870b7	-0.03331062
121	0xbe39de39	-0.18151177
122	0xbe00da4c	-0.12583274
123	0xbd8cf44b	-0.06882533
124	0x3d243d62	0.0400976
125	0xbdf075cf	-0.1174122
126	0xbd51a09c	-0.05117856
127	0xbe07009e	-0.13183829
128	0xbe230429	-0.15919556
129	0xbd71e411	-0.05905539
130	0xbd7fb9e2	-0.06243313
131	0xbd4405d2	-0.047857113
132	0x3d8701fd	0.06592176
133	0xbc8c48e6	-0.017124604
134	0x3d30dd63	0.04317988
135	0x3cd34848	0.025791302
136	0xbd583ad5	-0.05279048
137	0x3d9928cd	0.07478485
138	0xbdf2528d	-0.118321516
139	0x3c9ec476	0.01938079
140	0x3d423157	0.047410335
141	0xbdb38725	-0.08766011
142	0xbd7a8673	-0.061163377
143	0xbe082cdb	-0.13298361
144	0xbe2e7493	-0.17036657
145	0xbda717e9	-0.081588574
146	0xbbf1f1e6	-0.007383573
147	0xbc0d06f3	-0.008607614
148	0x3db61f9a	0.08892746
149	0xbd96c874	-0.07362452
150	0xbddd78f5	-0.10814086
151	0x3d567e91	0.052366797
152	0xbdd7ec16	-0.10543077
153	0x3d25250d	0.040318538
154	0x3e1dae1d	0.1539845
155	0x3e16b3e1	0.14717056
156	0x3cd2e7a8	0.025745228
157	0xbe373540	-0.17891407
158	0xbc853f1b	-0.016265443
159	0xbda10e13	-0.078640126
160	0xbdbbca11	-0.091694005
161	0x3d9e2940	0.077227116
162	0xbcd429c4	-0.025898822
163	0xbd6c4aea	-0.05768863
164	0xbd9cfa23	-0.07664897
165	0x3d8937b3	0.06700077
166	0xbd2328b6	-0.039833747
167	0x3dd3a31b	0.10333844
168	0x3d8ce03c	0.06878707
169	0xbd8339d7	-0.064075164
170	0x3d90ccfa	0.07070346
171	0x3e297489	0.16548361
172	0x3e1b6d33	0.15178375
173	0x3d93bcdc	0.072137564
174	0xbdb2a29f	-0.08722424
175	0xbd2da17a	-0.042390324
176	0x3e0abb5c	0.13548034
177	0xbd96d189	-0.073641844
178	0x3d9fc5d8	0.078014076
179	0x3c9056f9	0.017619597
180	0x3d34370e	0.043997817
181	0x3d1de8a4	0.03855194
182	0xbd7c8759	-0.061652515
183	0xbc882fc7	-0.016624345
184	0x3e5df276	0.21674523
185	0x3d771014	0.060318068
186	0x3dcc450d	0.09974108
187	0xbcc0d53f	-0.023539184
188	0x3e188c5d	0.14897294
189	0xbc114ab8	-0.008867912
190	0xbb20a996	-0.0024515144
191	0x3d850d26	0.064966485
192	0x3c547eae	0.012969656
193	0x3d8611e5	0.06546382
194	0x3d044b4d	0.032298375
195	0xbb482774	-0.0030541094
196	0xbdfa4ff2	-0.122222796
197	0x3d14e3ec	0.036350176
198	0xbc31223a	-0.010811383
199	0x3e858660	0.26079082
200	0x3e231d66	0.15929183
201	0x3d0f95c1	0.035054926
202	0xbda58aef	-0.0808314
203	0xbe177db8	-0.14794052
204	0x3d87b910	0.06627095
205	0x3e267da1	0.16258861
206	0x3e08ef99	0.13372649
207	0x3caeaa8f	0.021321563
208	0x3dc556c1	0.096356876
209	0x3e194624	0.14968163
210	0x3cbdad49	0.023153918
211	0xbdefd33c	-0.11710212
212	0xbe1e7348	-0.15473664
213	0x3d84d3b5	0.064856924
214	0x3ddb94c9	0.10721738
215	0x3e1726f1	0.14760949
216	0xbdfcd166	-0.12344627
217	0xbd20a20e	-0.039217047
218	0xbdb2f366	-0.08737831
219	0xbd8adc5d	-0.06780312
220	0x3c0eb632	0.008710431
221	0xbe1b6d1e	-0.15178344
222	0x3de7faa1	0.113271005
223	0x3ccc4be7	0.024938537
224	0xbdcb5292	-0.099278584
225	0x3d99cd16	0.0750982
226	0xbda3e572	-0.080027476
227	0x3a818778	0.0009882292
228	0x3ca133df	0.019678054
229	0xbe52ef5e	-0.20599124
230	0xbd66171a	-0.056174375
231	0xbb81cff2	-0.0039615566
232	0xbe320415	-0.1738437
233	0xbe1b22d6	-0.15150008
234	0xb99b3388	-0.00029602298
235	0xbc9feab5	-0.019521097
236	0xbd533a20	-0.051569104
237	0xbddc2ba4	-0.10750511
238	0xbdf6b7ed	-0.120468
239	0xbd08db63	-0.03341235
240	0x3d712bae	0.058879547
241	0x3e51238b	0.20423715
242	0x3d52afce	0.05143719
243	0x3d23f95d	0.040032733
244	0x3d658221	0.056032304
245	0xbdbc22b4	-0.091863066
246	0xbd69c45d	-0.057072032
247	0x3eaba704	0.3352586
248	0x3ddff01d	0.1093447
249	0x3cc75bd1	0.024335774
250	0xbe04bcb1	-0.12962605
251	0x3d577dae	0.052610092
252	0xbdd998c6	-0.10624842
253	0x3dd86d70	0.105677485
254	0x3d406821	0.046974305
255	0x3d78fe49	0.06078938

conv_t2.bias f4 [16]
0	0xbd4029e0	-0.046914935
1	0x3d522fa5	0.05131497
2	0x3cfada55	0.030621687
3	0xbe2b1c25	-0.16709955
4	0x3cdfc0d0	0.02731362
5	0xbce4d40c	-0.027933143
6	0xbd7a0e51	-0.06104881
7	0x3dedaad4	0.116048485
8	0xbd4fc63f	-0.05072617
9	0xbe08229b	-0.13294451
10	0x3d8711bd	0.0659518
11	0xbe2ac631	-0.16677167
12	0xbdc1fc6b	-0.09471973
13	0x3ccc1e53	0.024916803
14	0x3dbdd554	0.09269205
15	0x3dd59d3c	0.10430381

conv_t3.weight f4 [16, 1, 2]
0	0xbddc0359	-0.10742826
1	0x3e9b12e2	0.30287844
2	0xbf1dc3f4	-0.61627126
3	0xbe07e3e1	-0.13270523
4	0xbe63ccf0	-0.22246146
5	0x3e57c217	0.21070133
6	0xbf03bb6f	-0.51457876
7	0x3dd29640	0.10282564
8	0x3ebc95c2	0.36833006
9	0x3f0c5146	0.54811513
10	0xbdf768b5	-0.12080518
11	0x3f23ce61	0.63986784
12	0xbf3fd0f5	-0.7492822
13	0xbe903d43	-0.2817174
14	0x3ea93892	0.33050972
15	0x3e778f7e	0.24175832
16	0x3e83fa54	0.25776923
17	0xbf0b3eb2	-0.5439254
18	0x3ec466cf	0.38359687
19	0xbf36ad1b	-0.7135789
20	0xbf063aa6	-0.5243324
21	0xbd973c98	-0.07384604
22	0xbf3c98dd	-0.7367075
23	0xbf37f885	-0.71863586
24	0xbf3931aa	-0.72341406
25	0x3ef3a669	0.47587898
26	0x3d313403	0.043262493
27	0xbea9ea09	-0.33186367
28	0xbc2cbfb5	-0.010543753
29	0xbf183759	-0.59459454
30	0xbf2cc9c7	-0.6749539
31	0xbefe595e	-0.49677557
