Models/LatentVector55.ckpt (torch, 5410 bytes, 10 tensors)

conv1.weight f4 [4, 1, 3]
00000000: fdf7 ad3d bd86 ce3d fc97 813e c09e 403f
00000010: 9b70 aa3e 44ca d4be cb7f e13e 3eba 73bf
00000020: f9ac 8abe 9a12 c0be 900d 04bf 3bcf cebe
0.08494566 0.10084293 0.25311267 0.75242233 0.33289036 -0.41560566 0.4404281 -0.9520606
-0.27085093 -0.37514192 -0.51583195 -0.4039248

conv1.bias f4 [4]
00000000: f29c 573e 47cd a3be 36a5 bc3e e0cc 54bf
0.21055964 -0.31992552 0.36844796 -0.83125114

conv2.weight f4 [8, 4, 3]
00000000: 50c0 b4be 62b7 dbbe 71a8 9fbe 3ada c93e
00000010: 9f82 8abe c759 393e f297 93bd 1a54 35bd
00000020: 7a52 6fbe 93d4 853e 9bce c9bb fa04 c2bd
00000030: 4a0b 263e 68fa a23d a0de 483e b0e1 ecbd
00000040: 63c0 853d a49b c3be 90c4 21be e3aa 4c3e
00000050: 82f7 efbd db07 f6bd c936 203e 88bb 933d
00000060: a058 4e3e 640f 0c3e 70d8 9c3d 19e3 abbe
00000070: 442a 7dbe 128e d63d 178f 563e 4e0f 2ebe
00000080: f1fe 02be 9363 0bbe 80f2 983d 22aa 9fbe
00000090: b74a c93e 19c9 d83e 1fcb 353e 2a7b 18bf
000000a0: e9b5 d43e 4e39 1bbf ce89 b9bd bed4 93bd
000000b0: 0216 9f3d e772 3abe f1bf f43c 9e8f 33be
000000c0: 8616 c33e 6d13 e33e 23c7 4d3d 7ae3 eabe
000000d0: 9541 86bc 7cae 903e b2c3 d83e 3c5a a93d
000000e0: d627 09be a494 ccbe 8f2e edbe 1f06 fcbe
000000f0: 0ef9 fb3d 5965 993e d5ca e53d e6ca e33d
00000100: d68d 433e fbaa 823e dc0b 1cbe 3c16 393c
00000110: 5a05 2c3e c654 c9ba a66b 803e af8c 4b3e
00000120: c6b2 06be 672f 393e d4e3 0bbe 29e0 e7bd
00000130: 7458 eebd 711e 5fbd 6ed2 d8bd f3e7 f3be
00000140: dafc 9e3e f3b3 82bd c50b 0bbe e02e ac3b
00000150: 05b6 ccbc 061f d6be 7344 cd3b a550 6bbe
00000160: 3bcd a7be 2677 e8be f1bd 43be 3c58 0d3f
00000170: f830 833e e0fa 1d3e a81b 81be b778 8abe
-0.35302973 -0.42913347 -0.31183198 0.39424306 -0.2705278 0.18100654 -0.07206716 -0.04426966
-0.23371306 0.26138744 -0.0061586625 -0.094736055 0.16215244 0.079579175 0.19616175 -0.11566484
0.065308355 -0.38204682 -0.15797639 0.19987063 -0.1171713 -0.12013217 0.15645899 0.07213503
0.20150995 0.13677746 0.0765847 -0.335717 -0.24723154 0.104763165 0.20953022 -0.16998026
-0.12792565 -0.13612203 0.07468128 -0.3118449 0.39314815 0.42340925 0.17753266 -0.59562933
0.41545036 -0.60634315 -0.09059487 -0.07218312 0.077678695 -0.18207894 0.029876681 -0.17535254
0.38103122 0.44350758 0.05023874 -0.45876676 -0.016388694 0.2825812 0.42336804 0.08269164
-0.13394102 -0.39957154 -0.46324584 -0.4922342 0.12303363 0.29960135 0.11220328 0.11122684
0.19097075 0.25521073 -0.15238899 0.011296805 0.16798916 -0.0015360347 0.2508213 0.19877885
-0.13154134 0.18084489 -0.13661128 -0.11322052 -0.11637965 -0.05447239 -0.10587011 -0.476379
0.31052285 -0.06381979 -0.13578708 0.0052546114 -0.024989137 -0.41820544 0.0062642633 -0.22979982
-0.32773766 -0.45403403 -0.19115426 0.5521276 0.25623298 0.15427732 -0.25216413 -0.27045223

conv2.bias f4 [8]
00000000: b526 5f3d adc6 d6bd c59d ebbc f3b7 46bd
00000010: 5970 07bd 5e59 56be 61b1 40be 9a57 473e
0.054480273 -0.10487113 -0.028761754 -0.04851527 -0.033066127 -0.20932528 -0.18817665 0.19467011

conv3.weight f4 [1, 8, 2]
00000000: 71ae 49bd 3f5e aa3e 76f2 db3e 6ac1 03bd
00000010: 2226 67be 7197 903d f639 0b3e e588 a5be
00000020: 351d a1be d6af 0ebe 3ac4 ddbc b269 0dbe
00000030: faff 8cbd c6c3 43be ad74 993e edac 183e
-0.049238626 0.3327503 0.4295842 -0.032166876 -0.2257314 0.07060135 0.13596329 -0.32331005
-0.31467596 -0.13934264 -0.027071107 -0.13809851 -0.06884761 -0.1911765 0.2997183 0.14909716

conv_t1.weight f4 [1, 8, 3]
00000000: d831 dc3d d8e0 c63d 0faa bd3e 42b3 39be
00000010: 9873 e23c eea4 acbe 4225 203e c998 023e
00000020: 9395 08bf 8df8 113d 25c5 8b3e e5f0 973e
00000030: c484 4f3e 7c36 9e3e 4d1d 753e cafd 143e
00000040: 30fd 943d 2bf6 503e 13cd c73e d7be afbd
00000050: 6b46 ae3e 40c2 0f3e 3532 33bd 5f48 823c
0.107516944 0.09710854 0.37043807 -0.18134788 0.02764301 -0.3371958 0.15639213 0.12753595
-0.5335323 0.035637427 0.27298847 0.29675975 0.2026549 0.30900943 0.23936959 0.14549938
0.07274854 0.20406406 0.39023647 -0.08581322 0.340381 0.14038944 -0.043749053 0.01590365

conv_t1.bias f4 [8]
00000000: 96e1 6e3e b1b7 82be 8eab ec3d 2c2c 893b
00000010: 510d 0bbe a07a cd3d 4938 1f3e f4b5 943e
0.23328242 -0.2553077 0.11556159 0.004186174 -0.13579299 0.100331545 0.15548815 0.2904507

conv_t2.weight f4 [8, 4, 3]
00000000: cfc8 bbbe 0697 513d 4f04 4b3d 0c5b f9bd
00000010: dece b73d 1133 083e c755 d9bd 6dd7 843e
00000020: f2ec 313e 55d9 153e 27f5 963e f139 9e3d
00000030: 7472 b53c 8417 a53e 844b a53e 153c 843e
00000040: f673 443d 6df3 e7bd 3e19 2cbe 0987 1fbe
00000050: d15c 25be 0f43 88be 7241 053e e873 eebd
00000060: d98b 1c3e dc52 2bbf 7be0 86be 4ec2 803e
00000070: cb83 093e ae58 93be 8d74 2dbf 434d 4bbc
00000080: 6ef8 773c c87b 13bf ccf7 87bd dfea dd3e
00000090: b2ab b0be 4bdb 6ebe 9a1a 85bc 14ea abbe
000000a0: ba0e b3bc 9adf 86bd e593 b53e c3ee 0b3f
000000b0: 0a3b da3e e191 a93d b1b4 cf3e 6050 463e
000000c0: 48eb 2e3e ea27 c3bc 3a11 01be 94e1 edbd
000000d0: 97cf 253d a864 c7bd 609c 003e ca71 eb3e
000000e0: 1ba1 1abd ceb8 203e 9dc2 423e fe18 b63d
000000f0: 5076 ae3d e057 033e 8712 babe a857 49bd
00000100: 22fd 95be 838f 88be 4c61 d5bd 8598 543e
00000110: f22b 743d fac4 57bd 565c c73b e913 dc3c
00000120: a3c3 6439 047d 383e d579 c5be e5b5 0dbe
00000130: 44d5 223e e7e1 4c3d 7c73 8e3e 509c 7c3c
00000140: dc10 433e 7318 233e 5c97 a13d 8838 953e
00000150: 34d6 5cbe 0107 4dbe 7b9e fc3c aa07 64bd
00000160: f9eb c2be c103 2fbe 725e 8c3e db45 663e
00000170: dac2 903e 2f92 f9bd 2065 45be 8220 263e
-0.36676642 0.051169418 0.049564656 -0.12175569 0.08975004 0.1330073 -0.10612064 0.25945607
0.17375544 0.14633687 0.2948391 0.07725895 0.022149302 0.32244503 0.32284176 0.2582709
0.04796215 -0.11325727 -0.16806504 -0.15578856 -0.16148688 -0.26613662 0.13013247 -0.11643201
0.15287723 -0.6692331 -0.2634314 0.25148243 0.13429181 -0.28778595 -0.6775597 -0.012408557
0.015134914 -0.5761075 -0.066390604 0.43343255 -0.34505993 -0.23325841 -0.016248036 -0.33577025
-0.021857608 -0.06585617 0.35464397 0.54661196 0.42623168 0.08279777 0.40567544 0.19366598
0.1708194 -0.023822743 -0.12604228 -0.11615291 0.040481176 -0.097359955 0.12559652 0.45985252
-0.0377513 0.15695497 0.19019552 0.08891486 0.0851866 0.1282649 -0.3634226 -0.04915586
-0.29294688 -0.2667199 -0.104189485 0.20761307 0.059612222 -0.052678086 0.0060840053 0.026864963
0.00021816655 0.1801644 -0.38569513 -0.13838919 0.15901667 0.050020125 0.27822483 0.015418127
0.190494 0.15927295 0.07890198 0.29144692 -0.21566087 -0.20022203 0.030837288 -0.05567137
-0.38070658 -0.17091276 0.27415806 0.22487585 0.2827366 -0.121860854 -0.19276857 0.16223338

conv_t2.bias f4 [4]
00000000: ce5c 033e 775d 163e ed63 373e 3d19 633e
0.12828371 0.14684092 0.17909212 0.22177596

conv_t3.weight f4 [4, 1, 3]
00000000: 8530 95be 7cc5 633e ab2f 053e a0b3 223d
00000010: 3c5c 733e 6b60 abbe 0e34 26be 280f d7be
00000020: 0ad2 ad3d fa04 52bf 1cfb 0bbf d7d5 32bf
-0.2913858 0.22243303 0.13006465 0.039722085 0.23765653 -0.33472 -0.16230795 -0.4200375
0.084873274 -0.82038844 -0.5468004 -0.69857544
