Models/LatentVector6.ckpt (torch, 18194 bytes, 10 tensors)

conv1.weight f4 [16, 1, 3]
00000000: 306e fc3e 020d b7bd f430 bebc 55c6 08bf
00000010: 162e 843d 352d 2ebe 7394 cbbe 157a b13e
00000020: fa5a f63e 2554 58be 3064 013f 0970 eb3d
00000030: 6c3c 223e 4948 d13e 374b db3d d15b bc3e
00000040: ce93 7b3e 2e72 f7be a6cc a8be 1f58 10bf
00000050: 98f9 0d3e cbed 9abe e71a b1be f121 a7be
00000060: b8ca 3abf e74d 21bf 8977 9e3e a76c 8b3e
00000070: d093 e83e 6377 b2be 3f81 0cbe 473d d0bd
00000080: 2f00 0a3e eb80 b7be 8be8 0a3e 3c81 c3be
00000090: 6ddf f03d 0a82 0d3f 4d74 363e 8ac6 9e3e
000000a0: 36d5 04bf b92b 69be 300c 85be fb48 163d
000000b0: fd6e 3fbe 7064 b0be cbcb 0fbf 90ed 76be
0.49302816 -0.08938028 -0.023216702 -0.5342763 0.06454103 -0.17009433 -0.39761695 0.34663454
0.48116285 -0.21125849 0.505435 0.114959784 0.15843362 0.40875462 0.107077055 0.367888
0.24568102 -0.483293 -0.32968634 -0.5638446 0.13864744 -0.30259547 -0.34590837 -0.32643083
-0.72965574 -0.63009495 0.30950573 0.27231333 0.45425272 -0.3485671 -0.13721178 -0.10167938
0.13476633 -0.35840544 0.1356527 -0.38184536 0.11761365 0.5527655 0.17817803 0.31010848
-0.51887834 -0.22770585 -0.2598586 0.036690693 -0.18694682 -0.34451628 -0.5617034 -0.2411406

conv1.bias f4 [16]
00000000: 4d97 453d 760c d4bd a28b 19bf 0c98 f43e
00000010: c446 e83e b241 c9be 6a7f 2d3e 4799 f23e
00000020: 48ca 18bf eb33 09bf 845c b83e 36b0 8e3d
00000030: edf1 503e ea66 80be fb03 2a3e 918c ef3e
0.048239995 -0.10353939 -0.5997869 0.47772253 0.4536649 -0.39307934 0.16943136 0.47382566
-0.59683657 -0.53594846 0.36008084 0.06967203 0.20404787 -0.25078517 0.16603081 0.4678693

conv2.weight f4 [32, 16, 3]
00000000: 1601 41bd c2a6 9ebd a358 23be aa64 74bc
00000010: c38e be3d 115d 05be 9111 0ebc 84bd ed3d
00000020: 29c5 0abd 47bc 62bd 9643 22bd 1dc6 75bd
00000030: c294 813c e4ff 0bbe ff00 593d 307b 20bd
00000040: da49 eabc 5e5c b7bc 44aa 913d 5f0b e4bd
00000050: 5c35 0abe 3d7b c9bd 26ca ddbd d488 80bd
00000060: b4d1 f63d 6fd5 d5bd e7d5 96bd 193a f6bd
00000070: be2d 9dbd 7dc9 3cbc d390 b7bd 461b c73a
00000080: 9ea0 4c3d ea2a 92bd e8f7 003a 65f3 8abc
00000090: e329 f13d e78b 4dbc ba40 d83d b6f8 e13d
000000a0: ed15 5e3d 9dc0 a33d 6075 f6bd d0b3 fcbd
000000b0: b704 193d 0beb 723d ac77 053e 3dde 11bc
000000c0: 56f5 6fbc 18ca fc3d 3341 bd3c 714b 033e
000000d0: 3375 97bd bd9e 4abd f625 b33b e7e4 8e3d
000000e0: 885a 06be 7ff4 28bd 6015 cc3d 286a f33c
000000f0: 877e ce3d 38ab 59bd 4475 bbbd 8f66 bebd
00000100: 3afd 8dbd fa92 bdbd a69c a23d 6035 6c3d
00000110: 7ae1 babd 59a2 fa3d d42d 213d c6aa 393d
00000120: 1635 84bd 5e12 c53d 56bb e0bd 88c7 e13d
00000130: e1e8 92bd 293c 933d 72d2 59bd 0647 bb3d
00000140: 07fd ffbd ed32 5b3c 8cd2 9a3c dc89 05bd
00000150: 8b33 57bd 47be 12bd 7a65 fd3c 7743 d43d
00000160: 2599 16bc f9a1 153e e5a6 47bd 1d9f 4ebd
00000170: 4b87 883c 9107 15bd 8768 293d 1201 f73d
00000180: 12e3 8f3d 3601 b9bd 1135 b6bb c2f6 87bd
00000190: 688b 3ebe d544 cabc 2841 e53d 9743 753d
000001a0: ef4f 68bc b59d 453c 3d4d 30bd 4411 a93b
000001b0: 99a9 203e e601 26bd d9b2 633d 6b6f 03be
000001c0: 40d2 83bd e0e1 cebc b81f 0fbe cabc e6ba
000001d0: ad1b 21be 0bcc 1ebd 99c2 e33d 6e58 133e
000001e0: b1e7 2bbd 4a7d 0cbe 9489 18be 7cf4 67bd
000001f0: 739a c3bd c3c2 b23d 3eda aebd e03f d63d
00000200: d0ad 433d 813a dfbd 5bbc e73c 729d febc
00000210: 5976 d73c 3afa 55bd e732 9b3b b0ad 3f3c
00000220: 91e4 a83d 6b1f b6bd bca9 9fbd ac39 2cbe
00000230: 58b2 5a3d a7fd 263e 4ad7 ec3d c874 78bd
00000240: 5fc8 553e 80f6 71bd 2cda 403d f867 cf3c
00000250: fbc8 1bbe 5c49 113d 5dbf 083e f289 633c
00000260: 5ac9 653e 78c8 133d a905 7b3d c90f 9bbd
00000270: fed9 12be 7c34 0fbe 76a7 dfbc f237 673d
00000280: b151 3b3e 200b 443e 3bc1 f7bd 2b81 83be
00000290: cd6c 67bd 165d 283c bbdd 28be 60e0 35be
000002a0: 5a15 193d 2219 d43d 2004 42bc 3a6f 243e
000002b0: e6f2 123e d93a b73c c371 0abe 5043 18be
000002c0: d60a 063d d2cb 82bd 68af ebbd cfc6 ddbd
000002d0: 90c4 b53c f059 1c3e 2cf9 673c d171 b4bb
000002e0: 0319 9b3d 5d7f 993b f934 0bbe 6b50 60be
000002f0: 76ab f2bd f610 e1bd 4a35 5dbe c4e5 54bc
00000300: c3ae 003e 45df d2bd a06e 5c3d f693 adbd
00000310: f2f6 41bc b4b4 9c3d 138a 063a 0151 1a3d
00000320: 2496 45bd d398 083e 35e3 a0bd a0d0 b13c
00000330: cfe0 c73b e94f b03d f65f f03b 84fc be3d
00000340: 2782 513d db43 d83d 8f07 c63c 0d9a a63d
00000350: d000 223e 1bd6 57bd c87e 69bd c150 c13d
00000360: 6dd6 7e3d 7bd2 05be 68b6 5a3d 48f4 09be
00000370: 3428 8fbd 12c6 883d 790e 963d c8b4 17bd
00000380: dd27 f03d 2d38 553e 1452 3f3e ffcb 9dbd
00000390: 39d5 53bd 4d6e bebb dede f43d 66f1 7fbc
000003a0: a6ee 673d eeab b33d 5d8b 45bd b99f 70bd
000003b0: da15 2a3e 298c 46bc 7228 cc3d cf16 1dbe
000003c0: c212 953c 16c2 0e3e 69ec 963b 581a 0d3c
000003d0: f584 0bbe ae15 293e bed3 fbbd 2c26 63bd
000003e0: c667 19be e797 bcbc ac8d a5bd bc2d a6bd
000003f0: dcd2 ac3c 9af1 94bc 7a10 1a3e 0ee1 dcbc
-0.047120176 -0.0774665 -0.15951781 -0.014916578 0.093045734 -0.13023783 -0.00867118 0.11608413
-0.033879433 -0.055355337 -0.039615236 -0.06000339 0.015818004 -0.13671833 0.052979466 -0.03917998
-0.028599668 -0.022382911 0.07112554 -0.11134981 -0.13496917 -0.09837959 -0.108295724 -0.06276098
0.120517164 -0.104411 -0.073650174 -0.120228 -0.0767474 -0.011522648 -0.0896317 0.0015190623
0.049957864 -0.071370915 0.00049197534 -0.016961763 0.117755674 -0.012545562 0.105592206 0.11033766
0.05422013 0.079957224 -0.12034106 -0.12338984 0.037358012 0.059306186 0.13033932 -0.008903083
-0.014645895 0.12343234 0.023102378 0.12821747 -0.07395401 -0.04946779 0.005467172 0.069772534
-0.13120472 -0.041248795 0.099650145 0.029713705 0.10082727 -0.053141803 -0.09153226 -0.09296905
-0.06933065 -0.09256549 0.079400346 0.05766809 -0.091250375 0.122379966 0.039350346 0.045328878
-0.06455438 0.09622644 -0.109732315 0.11024386 -0.071733244 0.07189209 -0.053179212 0.09144406
-0.12499433 0.013378841 0.018899225 -0.032602176 -0.05253939 -0.035825994 0.030932177 0.103644304
-0.009191786 0.14612569 -0.048743147 -0.05044471 0.016666075 -0.03638417 0.04135945 0.12060751
0.07025732 -0.09033434 -0.005560525 -0.06638862 -0.18607867 -0.024691025 0.11194068 0.05987891
-0.014179214 0.012061526 -0.04304241 0.005159529 0.15689696 -0.040529154 0.055590484 -0.12835471
-0.064365864 -0.02525419 -0.13976943 -0.0017603871 -0.15733214 -0.03876881 0.11121101 0.14389202
-0.041969005 -0.13719669 -0.14896232 -0.056629643 -0.09550943 0.08728554 -0.0853772 0.10461402
0.047773182 -0.108998306 0.028288057 -0.031080935 0.02630155 -0.052240588 0.0047362926 0.011699125
0.082467206 -0.08892711 -0.07796046 -0.16818875 0.053392738 0.16307698 0.11564501 -0.060658246
0.20877217 -0.05907297 0.047083065 0.02531813 -0.15213387 0.03547035 0.1335425 0.013887869
0.22440091 0.036079854 0.061284695 -0.0757137 -0.1434097 -0.13984865 -0.027301531 0.056449838
0.18292882 0.19144869 -0.12097403 -0.25684485 -0.056500245 0.0102761 -0.16490833 -0.17761374
0.037373878 0.10356356 -0.011841804 0.16058055 0.14350471 0.022366928 -0.13519959 -0.14869428
0.032725178 -0.06386532 -0.115080655 -0.10828935 0.022188455 0.15268683 0.014158528 -0.005506732
0.0757313 0.0046843723 -0.13594426 -0.21905677 -0.1184911 -0.10989563 -0.2160236 -0.0129942335
0.12566666 -0.102964915 0.053816438 -0.08475487 -0.0118386615 0.07651654 0.0005132269 0.037674908
-0.04823889 0.13339548 -0.07855836 0.021705925 0.0060997973 0.08608992 0.007335658 0.09325507
0.051149514 0.105598174 0.024173526 0.081348516 0.15820622 -0.05269442 -0.057005674 0.09439231
0.06221621 -0.13068573 0.053396612 -0.13472092 -0.0699009 0.06678404 0.07326979 -0.03703764
0.11726353 0.2082221 0.18683654 -0.07704925 -0.051717017 -0.0058114887 0.11956571 -0.015621519
0.056624077 0.08773027 -0.04822861 -0.058746073 0.16609898 -0.012118378 0.09968652 -0.15340732
0.018197421 0.13941225 0.004605819 0.008612238 -0.13624938 0.16512176 -0.12296246 -0.055456325
-0.14980993 -0.023021651 -0.080836624 -0.08114192 0.02109664 -0.01818161 0.15045348 -0.026962783

conv2.bias f4 [32]
00000000: 2d05 a1bd f8b8 7f3c 0f50 cb3d e019 5fbd
00000010: a27f 19be 7ef3 123d 52fc 88bd 51d7 733d
00000020: e206 0abe f25d b0bc 7465 763c 6fbc c23d
00000030: 3786 1abd 854e 053e de85 3b3b 8605 b2bd
00000040: 0060 253e 0a71 a9bc 6d25 3a3d 2d8b 2b3d
00000050: cadc d33c 5c3e 613d f911 65bc 8692 9bbd
00000060: eebf d73d ee5f 9d3d 3294 bc3d efe1 a13d
00000070: 30d2 163e 134f 4a3e c901 113e 2a8f 27bd
-0.07862315 0.015608065 0.09927379 -0.054468036 -0.14990094 0.035876743 -0.06688751 0.059531514
-0.13479188 -0.021529172 0.015038837 0.09508597 -0.037725653 0.13018234 0.0028613727 -0.0869246
0.16149902 -0.020683784 0.04544585 0.041880775 0.025862116 0.05499111 -0.013981336 -0.075963065
0.105346546 0.07684313 0.092079535 0.079044215 0.14728618 0.19756727 0.14160837 -0.040908016

conv3.weight f4 [1, 32, 2]
00000000: 1cb3 debd bc94 75bd 60d5 ac3d 9de5 bb3d
00000010: 4800 0eba bb40 c9bd c020 eebd d1d1 8d3b
00000020: 6731 d13d db9f 243c 5e95 1dbd 99a7 1d3e
00000030: 0b63 f73d be61 57bd 9a35 3cbd 760c b83d
00000040: ae8b a4bd 7b60 ed3d 95f4 0f3d 07df 6f3d
00000050: 5654 8bbd 7936 fabd 8887 313d 3e71 33bd
00000060: 0b32 6ebd 5bd3 df3d c2da d03d 69a1 363d
00000070: 3768 f2bd f191 89bd 1ac3 e4bc 9882 963d
00000080: 2b20 4b3c dee8 3f3e 18b4 ab3d c19e 1c3c
00000090: bb53 06be 647b 153c 1e58 abbd 1bed 623c
000000a0: 5633 753c 7931 903d 4bf1 85bc 0de0 eb3c
000000b0: 62a4 463d f361 d3bd 7e1a ddbc 119f 4c3d
000000c0: 64b3 be3d 96c5 d43b 0459 153a 17de 913d
000000d0: 4adc bdbd 940a a9bb 9a9b f73d 2a3d 1e3d
000000e0: 38df 27bd 67d0 10be 4824 f1bd 6ddd a0bc
000000f0: a383 1abd fbd7 0d3c 82c0 02bc ebad d63d
-0.10874006 -0.059956297 0.084391356 0.09174655 -0.0005416912 -0.098267995 -0.1162734 0.0043279906
0.10214501 0.010047878 -0.038472526 0.15395965 0.12079438 -0.05258345 -0.045949556 0.08986752
-0.08034454 0.11590668 0.03514536 0.058562305 -0.06803195 -0.12217421 0.043342143 -0.043809168
-0.058153193 0.10928985 0.10197975 0.044587526 -0.11836284 -0.06717289 -0.027925063 0.073491275
0.012397806 0.18741176 0.083839595 0.009559334 -0.13117878 0.009123657 -0.083664164 0.013850476
0.014965853 0.07040686 -0.016350409 0.02879336 0.04849661 -0.10321417 -0.026990172 0.049956385
0.0931156 0.0064932806 0.0005697163 0.071224384 -0.092705324 -0.0051587317 0.120902255 0.03863255
-0.040984362 -0.14141999 -0.11774498 -0.019636834 -0.037723195 0.008657451 -0.007980468 0.10482391

conv_t1.weight f4 [1, 32, 3]
00000000: 66d6 5bbe 874e bfbd 53f2 77bd c6e6 5dbd
00000010: 9ca3 1b3e 0131 683d 6486 82bd 1b3a 0e3e
00000020: 1544 bc3d fd31 1dbe 67d8 68be 1662 c5bd
00000030: 60f0 d93d 2e70 5abd f658 a2bd c1c6 94be
00000040: 40b7 bbbe d8ee e73b c874 aabc 53e6 85bd
00000050: c0ca 85be 9ae6 9cbd 69a4 48bd c40c 52bd
00000060: bba7 433d 179a 523e f15f 853a 01d2 463e
00000070: c84b 1b3e 6831 d83d 3c97 423d 7b8c aebd
00000080: 4c94 e9bd 7b43 fcbd 638e 80be 4e0b 40bd
00000090: a824 9a3e 73d7 7a3e d732 f23b c61d 01be
000000a0: aa2a ccbc 80fc 8d3d 47d5 22be 2b80 4fbd
000000b0: c803 abbd b749 073e 9d02 513e e75e 9a3d
000000c0: e886 413d 3777 363e 78e5 063e d207 a9bd
000000d0: b18c 25be e307 4ebc 9a43 813c a402 bd3d
000000e0: 7ca1 acbc 95a4 363e c351 5b3e 05cb 57bd
000000f0: 2881 dabd 7be5 ddbd 21bf f5bd 7db8 5ebc
00000100: a373 4bbe b1c9 cdbd c8a2 1dbe dd25 14be
00000110: 2ebb 42be 6d9b 84bc f47f 753e 09a5 383e
00000120: f432 023e 5694 4a3e 64ee da3d f076 233e
00000130: 469e 1f3d a236 213d d46a 09bd 6b48 d73d
00000140: f7ee e73c 3b7e b63c fe66 a0bd 973c c7bd
00000150: 60f8 db3d c191 91be 7a70 dcbe 647d 53bd
00000160: 686a 463e 6341 1e3e 3412 3fbe 287f 58be
00000170: 61a4 e5bd ce88 0d3e 800b 743e 6e33 a83d
-0.21468505 -0.0934115 -0.060533833 -0.05417516 0.15199131 0.05668736 -0.06373289 0.13889353
0.09192673 -0.153511 -0.22738801 -0.09637849 0.10641551 -0.05332964 -0.07927124 -0.29057887
-0.36663246 0.007078033 -0.020807639 -0.065380715 -0.26131248 -0.07661171 -0.04898492 -0.051281705
0.047767382 0.20566593 0.0010175687 0.19416048 0.15165627 0.105562985 0.04750751 -0.08522888
-0.114052385 -0.123175584 -0.25108632 -0.04688578 0.30106091 0.2449625 0.0073913145 -0.12609014
-0.024922688 0.06932926 -0.15901671 -0.05065934 -0.083503306 0.13211714 0.20411153 0.075376324
0.047247797 0.17818914 0.13173473 -0.08253445 -0.16166951 -0.0125751225 0.015779305 0.09229019
-0.021073096 0.1783622 0.21417908 -0.05268385 -0.10669166 -0.108347856 -0.119993456 -0.01359379
-0.1986833 -0.10048235 -0.15394127 -0.14467569 -0.19016716 -0.016187394 0.23974591 0.18031706
0.1271475 0.19783148 0.10690001 0.1596334 0.0389693 0.039358743 -0.033549145 0.105118595
0.02831219 0.022276988 -0.07832144 -0.097283535 0.10740733 -0.28431514 -0.43054563 -0.051633254
0.19376528 0.1545463 -0.18659288 -0.21142256 -0.112129934 0.13821718 0.23832512 0.082129344

conv_t1.bias f4 [32]
00000000: f0cb b83d 90b3 40bd 12ba 4cbd daa3 a03c
00000010: 9937 9fbd c125 89bc e21a 773c e804 cc3d
00000020: 6468 debd b9a8 8bbd 1ced 273d 3ca0 263d
00000030: 55fd 0fbc c2ff 92bd 08dc e23d f9e0 eebd
00000040: 1445 74bd 3482 b43d b5f5 6bbd 3e3c b7bd
00000050: 0f27 9cbd f8d9 cf3d 2a97 873c 0599 b93c
00000060: 47e3 b6bc 8caa cdbd 4c62 80bd 8da2 303d
00000070: 46e7 dbbc a01b a1bd 7473 b63d 75fd 85bd
0.09023273 -0.047046244 -0.049982138 0.01960938 -0.07774276 -0.016741635 0.015082093 0.09961873
-0.10859755 -0.06819291 0.04099761 0.040680155 -0.008788426 -0.07177688 0.11077124 -0.11664004
-0.05963619 0.08813897 -0.05760737 -0.08947037 -0.07624637 0.10148996 0.016551573 0.022655973
-0.022325171 -0.10042295 -0.06268749 0.04312377 -0.026843678 -0.07866597 0.0890874 -0.06542484

conv_t2.weight f4 [32, 16, 3]
00000000: 6b3e 843d cf5e a1ba 854b 083e 5100 82bc
00000010: 0cde 10be 9a31 31be e7b4 b83d 4647 3abb
00000020: bd59 153e 18d5 e9bc e717 b8bd 9ef2 bcbd
00000030: bf76 d6bd 5f2f 023d b518 423d 93ab 07bd
00000040: 96ce b4bd dc66 6f3d 023a 9f3d 0bce 2b3d
00000050: c59b a7bd 68ef 28bb aaf1 a5bc ede0 e6bd
00000060: 9739 d0bd 9202 383d 7a59 123e 27b1 aa3d
00000070: 19fe f33c 1118 213d 67cd b13d ea78 203c
00000080: c1c9 ba3d 0b9e ee3c ee04 81bc 430e 4a3c
00000090: 14a6 f6bd 37ca 29be 3bc5 55bd 75de 333e
000000a0: 19c0 b53d ea64 023e 1cad cabd 1754 09be
000000b0: 2a4c 15be aa96 b53d 85c5 8d3d ba51 6e3c
000000c0: 93f3 f5bc 134b 81bd 81c0 eabc 8458 0a3e
000000d0: 7f7f bebc 1de9 2a3e af7f 01be 9770 c53d
000000e0: 9ff0 cf3c 2e00 da3d 4488 4f3b 71d0 2dbc
000000f0: 4fbc 46bd b290 cabd e6d9 063e c6c1 343e
00000100: 9aa9 9e3d fe48 a2bc bea5 a33d 83fa 033d
00000110: 3e4b c7bd 3c80 65bd 565f b83d 40d4 01bc
00000120: 000a cdbd 5d7c 01be 3c38 1f3d e6ee c7bd
00000130: 1291 f2bc 6625 d43d 47f1 f93d 4544 0f3e
00000140: 3995 d03d e37d 00bd 68ed 963d 4e1c c53d
00000150: 4fa9 ba3d 5c82 953d 631b 7d3d 8d59 d33c
00000160: 2ca4 933d 7628 113d cc14 38bc 7430 e7bc
00000170: 3e04 ebbd 33cc babd 6179 e4bc 58dc bbbd
00000180: 3d0e 8ebe 208a d9bd 1d3b d03d 5cb9 673d
00000190: a59c b23c a803 153d 14f2 18be c0b1 04be
000001a0: 364c 95bd c2e1 7d3d 5d2e b7bd c623 04be
000001b0: 7cfb ad3d 8665 ea3d 6260 1c3e 44d8 9b3d
000001c0: 618e 1c3e 7f7d a03d 79d4 333b d494 22bd
000001d0: 4b92 3ebd d8ef 183a 1e5a bc3d 5075 8b3d
000001e0: 327a 86be 1961 8dbd 750f e6bd ff19 df3d
000001f0: 63d4 953d e5ba 43bd 753e d53d 9f64 87bd
00000200: 035d 2f3e abf9 08be f88a 3a3b 044c b83d
00000210: 3cd7 e53d 0d17 0a3d 9075 ebbc b299 ff3c
00000220: 02b6 153e 52c7 8b3c f2ca 153e cd07 5f3d
00000230: 1bb5 fbbd 8f65 31be 4622 10bd e6cc c33d
00000240: e3f2 df3d 0a5a 85bc b773 263e 2842 e7bd
00000250: c032 24bd bda5 95bd 9a0c 2c3e 8cb4 463d
00000260: 3743 973c 82e7 bebd 8d24 97bd f552 16be
00000270: 35af 153d 428e 13be d5ca 68bd e1e7 2abe
00000280: 6445 26bd dad5 cdbd c939 06be 1e59 71bc
00000290: 5174 59be 61c4 07bd 1d5a 3cbd bafa 18be
000002a0: 45e9 2c3e 134e 273e 739b f43d f397 533c
000002b0: 6183 32bc 7ad9 9fbd 6922 f2bd f908 1c3e
000002c0: e598 86bd 98da c03d 993d b53d e67f 533e
000002d0: 95d4 9b3d f872 4cbe b7cd bfbd ae61 bdbd
000002e0: 1f4e 183e b6d6 473e 94d7 e6bd 0302 41bd
000002f0: ae51 e9bd 4cd6 ec3c 0189 423e d8c9 68bd
00000300: 7bc6 72bc 200d 40bd 1979 53be 1ffb 3d3d
00000310: 4074 963d 7d94 9ebd 56b6 713d 0618 7fbc
00000320: 607e c03d f41f 11be 334e 013e 24cb 56bc
00000330: 2cba ed3d cde5 90bd 410b 7f3d 34a9 763c
00000340: b3de c63c eab4 ad3d 89d0 963d 9db1 73bc
00000350: a34c 72bd 3146 143b a74e 0b3e b9df 193e
00000360: bdd7 a5bd a76e 833d ab48 2f3b eafc 3fbd
00000370: 3068 a53c 7c5e ff3c 83d4 b7bc 79ab 82be
00000380: 4b6b 0abd 4507 1b3e 9401 cc3d e040 21be
00000390: b804 b2bc eced c83d f1e4 0aba 2073 36bd
000003a0: 0775 7a3a 3aeb 883c 0bf3 c73d 6671 fabc
000003b0: 1256 3aba 9331 d33d fc0a a6bc 9e2e b63d
000003c0: 490b 3f3e 7636 5f3e d97e be3e 6768 0cbd
000003d0: 8d98 5abe 8a12 34be 02df e23d 067b 2c3e
000003e0: 2897 383e 64d0 7b3c 54cc abbe a78d 50be
000003f0: 0b72 0abe 5113 36be b4ac 92be ca2c 5a3d
0.06457218 -0.001231158 0.13310058 -0.015869291 -0.14147204 -0.17304078 0.090188794 -0.002842383
0.14585014 -0.028543994 -0.08988934 -0.09225963 -0.10471868 0.031783458 0.047386844 -0.03312261
-0.08828466 0.058447704 0.07774736 0.041944545 -0.081840076 -0.0025777463 -0.020256836 -0.1127337
-0.101672344 0.044924326 0.14291945 0.083345704 0.02978425 0.039329592 0.086817555 0.009794453
0.09120513 0.029128095 -0.015749421 0.012332502 -0.12043396 -0.16581045 -0.052190047 0.1756533
0.0887453 0.12733808 -0.09896299 -0.13410984 -0.14579836 0.088666275 0.069224395 0.014545852
-0.030023372 -0.063131474 -0.028656246 0.13510329 -0.023254154 0.16690488 -0.12646364 0.096406154
0.025383292 0.106445655 0.0031666914 -0.010608778 -0.04851943 -0.0989088 0.13169059 0.17652044
0.07747193 -0.019810196 0.07990597 0.03222133 -0.09731148 -0.056030497 0.09002559 -0.0079241395
-0.10011673 -0.12645097 0.03887199 -0.09762363 -0.02961019 0.10358696 0.12204223 0.13990887
0.10184712 -0.031370055 0.073695004 0.09624539 0.09114324 0.07300255 0.061793696 0.025799537
0.07209048 0.035438977 -0.011235427 -0.028221346 -0.114754185 -0.09120979 -0.02788991 -0.091728866
-0.27745238 -0.106220484 0.10167525 0.056573257 0.02180321 0.03638044 -0.14936095 -0.12958431
-0.07289927 0.061982878 -0.0894439 -0.12904271 0.084952325 0.11445145 0.15271142 0.07609609
0.15288688 0.078364365 0.0027439876 -0.039692715 -0.046526235 0.00058340793 0.09196876 0.06809485
-0.26265103 -0.069032855 -0.11233417 0.1089363 0.073159 -0.04778566 0.10412303 -0.06610989
0.17125325 -0.13376491 0.002846418 0.08998874 0.11222693 0.03371339 -0.028742582 0.031201217
0.14620212 0.017062817 0.14628199 0.0544508 -0.122904025 -0.17323898 -0.035188936 0.09560566
0.10934999 -0.016278286 0.16255079 -0.11291915 -0.04008746 -0.07307003 0.16801682 0.048512027
0.018464668 -0.093215 -0.073800184 -0.14680083 0.036544044 -0.14409736 -0.05683406 -0.16690017
-0.04059352 -0.100505546 -0.13107981 -0.01473072 -0.21235777 -0.033146266 -0.045984376 -0.14939395
0.1688586 0.16338377 0.11943712 0.0129146455 -0.010895581 -0.07805152 -0.118229695 0.15237798
-0.06572131 0.094166934 0.088496394 0.20654258 0.07608906 -0.19965732 -0.09365409 -0.092471465
0.14873551 0.195155 -0.11271587 -0.04712106 -0.11392532 0.028910778 0.18997575 -0.05683312
-0.014817829 -0.046887517 -0.20651664 0.046382066 0.07346392 -0.07743166 0.05901178 -0.0155696925
0.09399104 -0.14172345 0.12627487 -0.013109956 0.11607775 -0.07075081 0.062266592 0.01505499
0.024276113 0.08481772 0.07363994 -0.014873889 -0.059155118 0.0022624845 0.13604222 0.1502675
-0.080977894 0.0641759 0.0026746194 -0.046872057 0.020191282 0.031172983 -0.0224402 -0.25521448
-0.03379373 0.15139492 0.099612385 -0.15747404 -0.021730766 0.09811005 -0.0005298397 -0.044543386
0.00095541816 0.016713727 0.09763154 -0.03057165 -0.00071081624 0.1031219 -0.02026891 0.0889561
0.18656649 0.21798119 0.37206152 -0.034279253 -0.21347256 -0.17585197 0.110776916 0.16843805
0.18026412 0.015369508 -0.33554327 -0.20366536 -0.13520066 -0.17780806 -0.28647387 0.05326537

conv_t2.bias f4 [16]
00000000: ad32 163d 7d0f 07bd 121d 41bd 6ed8 1fbe
00000010: 3bea aebd 8c57 e5bc 407b e0bd b18a d73c
00000020: 0ba7 6b3c 2f7d ae3c fc97 f4bd 8db2 863d
00000030: f26f c8bd d172 90bd 8de4 ddbd 0f78 cbbd
0.036669422 -0.032973755 -0.047146864 -0.15609905 -0.0854077 -0.027995847 -0.10961008 0.02631125
0.014383088 0.021299927 -0.11943051 0.065770246 -0.09786977 -0.070531495 -0.10834608 -0.09935009

conv_t3.weight f4 [16, 1, 3]
00000000: b29e c0be 2ca8 033f 42d8 0f3f eb94 eebe
00000010: 515e 3e3d f6b1 c1be 66a4 123f c99b cc3e
00000020: a0c8 893e ba94 03bf 5787 b1be 910a 35be
00000030: 5837 11bf f9d6 d1be ddbb ae3d 5302 06bf
00000040: c344 993d bc0e afbd 2cb3 b5bd 7c20 6fbe
00000050: 43fc babe bffd 08bf 3f94 d0be 2e35 d83e
00000060: cee4 403c 4049 273f 93d2 0b3e 6949 85bd
00000070: 827f 963e bf5b 13bf 67a5 c5be 5eac 933e
00000080: 9027 3bbe 0550 053f d22a 173d 35d3 013f
00000090: 4c32 7fbc 291d 88bc 7aa8 0dbf 11d0 5cbe
000000a0: a34a be3b ec1a 813e 235b 883d 39a2 45be
000000b0: e34e 70bd ab7d f93e 8b6d bf3e 5ea5 463e
-0.37621075 0.51428485 0.5618936 -0.4659799 0.046476666 -0.37831086 0.572821 0.39962605
0.26910877 -0.51398814 -0.3467357 -0.17679812 -0.5672507 -0.40984324 0.08531926 -0.52347296
0.074838184 -0.08547732 -0.08872065 -0.23352236 -0.36520585 -0.53512186 -0.40738103 0.42228073
0.011773301 0.65346146 0.13654546 -0.065081425 0.29394156 -0.5756187 -0.38602754 0.28842443
-0.1827681 0.52075225 0.03690607 0.507129 -0.015575957 -0.016615467 -0.553352 -0.21563746
0.0058072372 0.25215852 0.06658008 -0.19300164 -0.058668982 0.4872869 0.37388262 0.1939902
