Models/LatentVector55.ckpt (torch, 5410 bytes, 10 tensors)

conv1.weight f4 [4, 1, 3]
00000000: 7647 c3be 3757 0cbf e560 23be 6123 993e
00000010: 62dc 763d 7ee7 9a3c 88b6 cfbd 87b4 62be
00000020: 97b2 74be d6db fa3e b218 ec3e 07ba b4be
-0.38140458 -0.5482058 -0.15954931 0.29909804 0.060268767 0.018909212 -0.10142237 -0.22139178
-0.23896252 0.48995847 0.4611259 -0.35298178

conv1.bias f4 [4]
00000000: b5ee c23e 90e5 b03e c4d6 8dbd e12e dfbd
0.38072744 0.34550142 -0.06925729 -0.10897613

conv2.weight f4 [8, 4, 3]
00000000: acb4 713e 4590 5d3d 5b00 c63d 48ee 953e
00000010: c84d a3be 7d52 89bd 6171 e0bd 7c54 223e
00000020: c962 0b3d 48a8 243e 0a8f 82be 0c2b 053e
00000030: 1a3c 1a3e ebce 2abe 1f38 8b3d 60ba 2cbc
00000040: 93f1 163d b707 dfbd 47b5 2b3e 1fca 5b3e
00000050: 1d92 a2bd 12a8 a93d d924 8dbe 68df b0be
00000060: 5127 8ebe a335 d6be f06c 073f 7baa e23d
00000070: 5019 4e3e 6307 0cbf da41 b1be 541d 09be
00000080: 7c0d 013f e6b1 52be 13d6 4a3f 6f34 23bf
00000090: ff9c fabd 4793 87bd 56d6 e13c a793 513e
000000a0: 9eec 843d c5e2 663e cbcb 7fbe 18d6 8a3c
000000b0: a618 93be 9f7f c8bd 69bc 45be 20de c43d
000000c0: 04f9 753e bba4 57be 2b1a 2ebe da44 563e
000000d0: 07e5 8fbe eac6 6bbe 6726 a53d 5395 503e
000000e0: 861d b93d 8fd8 0b3e 3111 a0be a43d 4dbe
000000f0: a6a1 423e 0adc a13e 6dcb 1dbd 5d27 cabd
00000100: 85fa 0a3e 3377 2fbe ad75 dcbd d3ae 583e
00000110: a3dc e03d 323d 753e 011f 143e 16b9 09be
00000120: 4692 99be 5b2a 2b3e 6e7e bc3e d2cf 563e
00000130: 9c90 8dbe f425 4f3e 3061 3c3c 8b63 9b3e
00000140: 91e7 d33e e720 16bb 8078 e23e 5898 c8be
00000150: ea07 26be aa20 963e 1145 b33d 2c45 903e
00000160: 4ec8 ea3d 604f ee3d 4ca0 773e 1bd4 a63e
00000170: 3995 aa3d 24e9 0b3d 746f 24be 75dc 2e3d
0.23604077 0.054092664 0.096680366 0.29283357 -0.3189528 -0.067051865 -0.10959125 0.1585254
0.034029756 0.16079819 -0.25499755 0.13004702 0.1506199 -0.16680495 0.067978136 -0.010542482
0.036851477 -0.10890143 0.1676837 0.21463822 -0.07938025 0.0828401 -0.27567175 -0.34545445
-0.2776437 -0.41837797 0.529006 0.11067673 0.20126843 -0.5469877 -0.34620553 -0.13390094
0.504112 -0.20575675 0.792329 -0.6375188 -0.12236976 -0.06619888 0.027568024 0.20466481
0.06490444 0.22547443 -0.24980085 0.016947791 -0.28729743 -0.09789967 -0.19310154 0.096126795
0.24020773 -0.21058933 -0.1700217 0.20924702 -0.28104421 -0.23025098 0.08063965 0.20369463
0.09038834 0.1365683 -0.31263116 -0.20043045 0.19006976 0.3161319 -0.03852408 -0.09870789
0.13572128 -0.17135315 -0.107646324 0.2116044 0.10979583 0.23949125 0.14464952 -0.13449511
-0.2999441 0.16715376 0.36815208 0.20977715 -0.2764939 0.20229322 0.011497781 0.30349383
0.4138761 -0.0022907795 0.4423256 -0.3917873 -0.16213956 0.29321796 0.08753408 0.28177774
0.11463986 0.11636233 0.24182242 0.325837 0.08329243 0.034157887 -0.16058141 0.042690713

conv2.bias f4 [8]
00000000: de6c 8cbe ef37 9ebd 2a5b 123e 86cc 14be
00000010: 8b62 2f3c 6a61 d5bd a6c7 463e 02ce 61be
-0.2742681 -0.07725512 0.14292589 -0.14531144 0.010704647 -0.10418971 0.19412097 -0.22051242

conv3.weight f4 [1, 8, 2]
00000000: 16b3 033d 6025 3bbe 1e57 94be dbd8 50be
00000010: cab2 97be 1265 d43e 8c69 503e 73d7 973d
00000020: 658f 19be a5e2 80be d0b2 3ebd abd7 9fbd
00000030: c71f 6bbe b6c1 b13d 38c2 3abe d926 2ebe
0.03215321 -0.18275976 -0.28972715 -0.20395224 -0.29628593 0.4148336 0.20352763 0.074141406
-0.14996107 -0.25172916 -0.046557248 -0.07804807 -0.22961341 0.086795256 -0.18238151 -0.17007007

conv_t1.weight f4 [1, 8, 3]
00000000: 913d d8bd 2ee3 abbe a3dd 483e 0243 4e3d
00000010: 5a82 e43d 088d 13be 3115 b7bd 10f0 0e3e
00000020: ad81 273d 63c4 8bbe caf7 6fbe dd51 3ebe
00000030: bfae 503d 6b26 703e 8342 9b3e 77fc 7fbe
00000040: c620 4cbe c10d 7b3d 54cf d1bd ca89 423e
00000050: f27b cdbd a9fe 893e 9548 423e 465c d2bd
-0.10558618 -0.33571762 0.19615798 0.050356872 0.11157675 -0.14409268 -0.08939589 0.13958764
0.040895153 -0.2729827 -0.23434368 -0.18585916 0.0509479 0.23452155 0.30324182 -0.24998651
-0.19934377 0.061292414 -0.10244623 0.18997875 -0.10033406 0.26952103 0.18973 -0.10271506

conv_t1.bias f4 [8]
00000000: 63e2 15be 9581 b7bd c206 b9bd 4b5f c7bd
00000010: a853 383e 7ade a2bd c2f6 353e 50fc 343e
-0.14637141 -0.08960263 -0.09034492 -0.097349726 0.18000662 -0.0795259 0.17769912 0.17674375

conv_t2.weight f4 [8, 4, 3]
00000000: df32 c63d 412e 9d3d 64e8 6a3d 630b 70be
00000010: baa1 803e 95df 99bd b599 85be 6580 473e
00000020: 12bf 6ebe 40f9 bbbc 371b c1be 420a 94be
00000030: e7ec 5d3d dc82 483d 0f7b 4f3e 4a08 5bbd
00000040: 3c65 12be 9cc9 bdbd 21b6 893e 07c1 793e
00000050: ab24 58be b187 20be ac91 43be 6d7a 52bd
00000060: 7f85 f7bd 5cd7 79be ad1a 85be 4d50 b4bd
00000070: 42bb 8bbe dc13 4ebe a476 88be 7810 d2bd
00000080: d3b5 ddbd 90c6 ac3d 2889 843e 0e1b b93d
00000090: 00e8 cfbe e02e 25be 84ed 72be c6b8 da3d
000000a0: 8fc6 a03e f6e7 983d 61c4 613e 3754 00be
000000b0: e152 8ebc da2a 70be d5f2 ddbe 69c2 45be
000000c0: 32db 13be 6142 883e fc9b 83be d2b5 73be
000000d0: 827f 58be a39d 23be 8f00 2b3d dbec 9dbe
000000e0: e15b b93c ce93 e43d d624 383c e1aa eb3d
000000f0: bcec 903d 810d a7be 00de 7abe e338 063e
00000100: cacc c63e 211e d23e d0e3 6ebe b1bb 9fbe
00000110: dd74 2abe 7e6b 3bbe ae26 cbbe 681f cabd
00000120: 4e35 c23d f0dd 133e 184b ab3d fa36 1cbe
00000130: b5ab 133e c824 6b3e 170f d0bd ec8f 843e
00000140: 11b1 b83d 5b13 ae3d c82e 6e3e 4b0d c8bd
00000150: 87c9 103e 7672 f4bc 6290 ff3d fddc 563e
00000160: 9b70 a6bd 6dfa b2be 6538 dabd c692 133c
00000170: 3bff 1b3e 66ad b13d d475 f03c 6c4e a53e
0.09677672 0.07674838 0.05735053 -0.23441844 0.25123388 -0.07513348 -0.26093832 0.19482572
-0.23315075 -0.022946 -0.37716076 -0.28914076 0.054181006 0.048952922 0.20261787 -0.053474702
-0.1429643 -0.092669696 0.26896766 0.2439004 -0.21107738 -0.15676762 -0.19098538 -0.051386286
-0.12086009 -0.2439856 -0.25996915 -0.08804379 -0.27291304 -0.20124763 -0.26653016 -0.102570474
-0.10825696 0.0843631 0.25885892 0.090383634 -0.4060669 -0.16131163 -0.23723418 0.10679774
0.31401488 0.07466118 0.22047569 -0.12532125 -0.017373504 -0.23453847 -0.4334933 -0.19312443
-0.14439085 0.26613143 -0.25704944 -0.23799828 -0.2114239 -0.15978102 0.04174858 -0.3084477
0.02262682 0.11161004 0.011239251 0.11507202 0.070764035 -0.3262749 -0.24498749 0.13107638
0.38828117 0.41038612 -0.23329091 -0.31197885 -0.16646142 -0.18302724 -0.39677948 -0.098692715
0.09482823 0.14440131 0.08363932 -0.15255347 0.1442097 0.2296325 -0.10159128 0.25891054
0.09018148 0.084997855 0.23260033 -0.097681604 0.14139377 -0.029839735 0.12478711 0.20982738
-0.081269465 -0.34956685 -0.10655288 0.0090071615 0.15234081 0.08675651 0.02935306 0.32286394

conv_t2.bias f4 [4]
00000000: 8002 943e 5293 46be 906d 1bbe fa3d 203e
0.28908157 -0.19392136 -0.15178514 0.15648642

conv_t3.weight f4 [4, 1, 3]
00000000: 72ef b63e 287b 293e 7787 103f a890 9ebe
00000010: 9d80 bdbe f35e c0be 0744 103f a8f2 89be
00000020: a6d8 d03e f88c dbbe 4be5 193f 9812 793e
0.35729557 0.16550887 0.564567 -0.3096974 -0.37012187 -0.3757244 0.563538 -0.26942945
0.4079029 -0.42880988 0.601155 0.24323499
