Models/M5.ckpt (torch, 110418 bytes, 26 tensors)

conv1.weight f4 [32, 1, 80]
000000 e1 18 21 3d c7 e6 cb bd d4 ea a8 bd f1 95 06 3e
       0.039330367 -0.09956127 -0.08247915 0.13143136
000010 02 e9 22 3e 4d 7d f8 3d 3c 4b f3 3d e4 2c 83 bd
       0.15909198 0.12133274 0.11879584 -0.064050466
000020 2c db 8a bd 31 6d 40 bd 22 1a 33 bd 53 73 ab bc
       -0.06780085 -0.046979133 -0.043726094 -0.020929014
000030 65 61 7e 3d 35 fd 09 3d 95 ba 1f 3d 0b 97 30 bd
       0.0621046 0.033688743 0.038996298 -0.043112796
000040 9b 15 6c 3d 1e ee 26 3c 21 79 c2 3c f9 38 d9 3c
       0.057637792 0.0101886075 0.0237394 0.026516424
000050 1b 92 5e bd f2 6a a3 3d c7 5b 89 3d 70 0a 06 bd
       -0.054338556 0.079793826 0.06706958 -0.032724798
000060 54 39 11 3d 58 c0 8c bc d6 e4 60 3c 9a 01 bb bd
       0.035455063 -0.01718156 0.013726434 -0.09131165
000070 98 6c 9f bd 87 00 c4 bd 7c 3b bf bd da ad ae 3d
       -0.077843845 -0.09570413 -0.093375176 0.08529253
000080 cb 22 38 bd 9d fa 8f bd 11 58 a1 bc 0c 05 7f 3c
       -0.044955056 -0.070302226 -0.019695314 0.015565168
000090 30 c3 38 bd ea 18 83 3d 7a 30 0d bd ef 64 a7 bd
       -0.04510802 0.06401236 -0.03447006 -0.081735484
0000a0 47 9b 90 bd 2c 3c 9b bd d0 60 d2 3d 5c e6 8d 3d
       -0.07060867 -0.07579836 0.10272372 0.06928703
0000b0 d2 1a d2 3d ca 2f d6 bd 8c f7 e9 bd 41 0c 9f 3c
       0.10259022 -0.10458334 -0.11424169 0.019415023
0000c0 34 5b db bc 1b 12 ea bc 06 48 99 bd 70 94 a7 bd
       -0.026776887 -0.028573086 -0.074844405 -0.08182609
0000d0 89 8b 93 bd 06 01 7f bd cf 88 f0 3c 73 ea be bc
       -0.072043486 -0.062256835 0.02936211 -0.023305153
0000e0 18 e2 52 3d 9a 71 63 3d 81 2f 4d 3c bc ae 1f be
       0.05148515 0.05552826 0.012523533 -0.15594
0000f0 b3 e7 ba 3c 03 2f 21 3d 0b ad 84 bd ea 62 e1 bc
       0.02281556 0.039351474 -0.06478318 -0.027512986
000100 cc 0f 3f 3d 75 13 cd ba 75 a4 96 bd fe d6 23 bd
       0.046645924 -0.0015646057 -0.073555864 -0.039999954
000110 11 d7 3d bd c6 e5 3c 3d f5 7a 5b 3d 24 df 7e 3d
       -0.04634768 0.046117567 0.053584058 0.062224522
000120 0f fd 8d bc f1 95 d9 bd da a0 fb 3d 4b 09 10 3d
       -0.017332582 -0.10624302 0.122865394 0.035165112
000130 0f 2b 4e 3d 7d 4a 8a bd 1a b3 4e bc 03 c7 0b 3d
       0.050334033 -0.06752489 -0.012615943 0.03412534
000140 35 0f 9b bc 23 23 21 bd a4 fb 23 3d cb 05 9d 3d
       -0.01892815 -0.03934015 0.040034905 0.076671205
000150 8b bb b1 3d 9a 62 fe 3c ad 0e 95 3c 47 40 b2 3d
       0.08678349 0.031052876 0.018195475 0.08703666
000160 79 56 46 bc aa bc e2 3d a9 8b c3 3d a9 d4 bd bd
       -0.012105578 0.11071141 0.095481224 -0.09269077
000170 51 7c 09 3e 3b d5 8e 3c 40 65 80 bd fb 11 7c bd
       0.13426329 0.01743566 -0.06269312 -0.061540585
000180 04 61 eb 3d b6 cf de bd 89 2f 62 3d bc 99 1a bc
       0.11493114 -0.108794615 0.055221114 -0.009436067
000190 79 e0 9d bd f8 ae 63 3d c6 75 5c 3d e3 4b eb 3d
       -0.077088304 0.055586785 0.053823255 0.114890836
0001a0 d0 e9 c9 bd a4 08 1e 3d 71 04 60 3d 9e d9 2a bc
       -0.09859049 0.03858246 0.054691736 -0.010427861
0001b0 4d 8d aa 3d b1 30 16 3e 3d a2 ae bd 62 ec b1 3d
       0.08327732 0.14667012 -0.08527038 0.086876646
0001c0 3a 80 2c 3c 00 94 c9 3c 9f 65 d0 3d 3f 7d 25 3c
       0.0105286185 0.024606705 0.10175633 0.010100662
0001d0 8a e0 76 bd d0 bf 9b 3d 5e 60 1d 3d ca 8d 15 3d
       -0.06027273 0.07604945 0.03842198 0.036512174
0001e0 bd e0 f2 bc 5f 51 c5 bd d5 61 fb bc c0 4f 41 bd
       -0.02964818 -0.09634661 -0.030686298 -0.047195196
0001f0 23 7b 10 bd cc a6 a8 bd ae 56 7b 3d fd 39 c7 bc
       -0.035273682 -0.08234939 0.06136196 -0.024319643
000200 10 0d a6 bd c0 e4 05 bd 84 ea f5 bd f3 1c 4a 3d
       -0.0810796 -0.032688856 -0.12007621 0.049344014
000210 1a cb 2b bd 26 11 ad bd 1a 33 04 be 78 96 62 3d
       -0.04194174 -0.084505364 -0.12910119 0.05531928
000220 34 57 d5 bd ef ed 9f bd 3d 9d 50 bc 53 3a 7c 3d
       -0.10417023 -0.07809054 -0.012732801 0.06157906
000230 27 6e b6 bd 61 38 5a bd 0e 53 90 3d ad f4 ea bd
       -0.08907729 -0.053276423 0.070470914 -0.114724495
000240 9a 29 bf 3d c1 31 2c 3d 0e 07 f4 3c 6e d0 6a 3d
       0.09334107 0.042039637 0.02978852 0.05732768
000250 01 d2 a5 3d e3 07 8a bd 1a 50 85 3d d9 1c 43 3d
       0.08096696 -0.067397855 0.06509419 0.047634933
000260 1f f8 6a 3d 00 7d c4 bb da b8 17 bc 9c e3 5a bd
       0.057365533 -0.0059963465 -0.009260381 -0.05343972
000270 2f 4f 4d 3d 04 15 ea 3a 94 8c 87 3b b1 1c f4 3d
       0.050124343 0.0017859046 0.0041366313 0.11919535
000280 99 66 b4 bd a0 7c 8a 3c 0e b3 45 3c 99 43 00 bd
       -0.088086314 0.016905129 0.012066616 -0.031314466
000290 92 fb 4f 3d 86 92 b5 3d f5 64 1f bd 49 ac 6b 3d
       0.050777026 0.08865838 -0.03891464 0.05753735
0002a0 7a e7 82 bd 30 f3 94 bd f2 15 bf bd e9 a4 83 3d
       -0.06391807 -0.07272947 -0.093303576 0.064279385
0002b0 c7 56 7b 3c e5 2c 86 bd 94 37 ef bc c4 5e 21 bc
       0.015340514 -0.06551532 -0.029201306 -0.009849254
0002c0 d8 82 21 3d 07 be 98 3d fe 51 c9 bd 74 c8 0a bd
       0.039431423 0.0745812 -0.09830092 -0.033882573
0002d0 67 aa 9d 3d ff 1a 2d 3d a7 a5 6f 3c a1 b5 7f bd
       0.07698517 0.042262074 0.014626897 -0.062429074
0002e0 90 f6 b3 3b 55 51 c0 3c 81 bc ba 3c ad 09 a8 3d
       0.005492039 0.023476282 0.022794964 0.082049705
0002f0 d4 ce 5a bc a0 8c 27 3c 4f f2 dd 3d 5d 1e bc 3c
       -0.013354976 0.010226399 0.10837232 0.022963697
000300 de dd 08 be a2 fd 0a bd f2 ce b4 3d d3 63 d7 3d
       -0.13365886 -0.03393329 0.08828534 0.10517087
000310 de 9a e0 3d f1 cb 7d bd c0 e1 b8 bd 61 aa 15 3d
       0.109670386 -0.06196207 -0.090274334 0.03653944
000320 b6 16 b6 3d 28 ce ce 3d 65 d1 0b 3d 5d 8a 1e 3d
       0.088910505 0.10097915 0.03413524 0.038706172
000330 71 73 d7 bd 36 21 dd 3c 3c 72 09 bc c1 ca 73 3c
       -0.105200656 0.026993375 -0.008389052 0.014879883
000340 65 7a 7d 3d 07 f8 ce bd 64 46 57 3b 6b 4c 2f bd
       0.061884303 -0.10105901 0.0032848353 -0.042797487
000350 09 47 8a 3d b2 ee a2 bd 04 2f 15 bd 14 6a a7 bd
       0.0675183 -0.07955684 -0.03642179 -0.0817453
000360 85 ea a0 3d e6 1a 9f 3d 64 e9 df 3d 02 50 bf 3d
       0.07857231 0.07768802 0.109331876 0.09341432
000370 aa 50 26 3c 25 b9 2b bb bd b4 1f 3d 0b 76 03 3d
       0.010151068 -0.0026202884 0.038990725 0.032094996
000380 7a 3b 29 3d 9d bd 83 bd 86 b5 e8 3d ad ec a5 bd
       0.041316487 -0.0643265 0.11362748 -0.08101783
000390 b9 ea 9f 3d 33 e2 11 3d 0c 09 db 3c 0d 3c 8a 3d
       0.07808442 0.03561611 0.026737712 0.06749735
0003a0 7f a4 4b 3d 78 bb 21 bd 11 57 7c bd 8d b2 35 bd
       0.049717423 -0.039485425 -0.06160647 -0.044359732
0003b0 fd 30 2c bd 57 49 7b 3d 95 da de 3b 86 cc 71 bc
       -0.042038906 0.06134924 0.0068009594 -0.014758235
0003c0 66 5f 74 3c 75 5c ca 3d b9 24 2e bb 21 7f 73 bd
       0.014915323 0.09880916 -0.0026572181 -0.05944741
0003d0 e4 ab 95 bd 8d 50 ec 3d 70 0e 8a bd b3 d2 a2 3d
       -0.07308176 0.11538801 -0.06741035 0.07950344
0003e0 b2 91 e9 3d 59 b8 7f 3d 47 0d 0c bc 03 68 ee bb
       0.11404742 0.062431667 -0.008548087 -0.0072755828
0003f0 36 d0 9e 3d 26 a4 25 bd fb 2b 8c 3d d2 d0 97 bc
       0.07754557 -0.040439747 0.06844326 -0.01853219

conv1.bias f4 [32]
000000 fd 89 ae 3d 9f a1 8b bc f1 41 c7 bd 7a d2 42 3d
       0.08522413 -0.01704484 -0.09729374 0.047564007
000010 d6 3b 59 3a ce 57 01 3c dc cc 89 3d 50 52 69 3c
       0.00082868093 0.007894469 0.06728527 0.014240816
000020 c7 56 a8 3d cc 73 b6 3d 8e 2b e7 3c 14 b3 df 3d
       0.082196765 0.08908805 0.02821901 0.10922828
000030 70 77 d7 3c 80 e5 f4 bd c8 5a b9 3d cd bf bd bc
       0.02630207 -0.11957836 0.09050518 -0.023162747
000040 eb 66 fd bc 0e a5 9f 3d 59 81 f8 3d 6b 98 d9 bd
       -0.030932864 0.077951536 0.12134046 -0.106247745
000050 d1 a3 38 3d 61 9e 77 bd 13 41 09 bd 01 d0 9b 3d
       0.045078102 -0.060453776 -0.033509325 0.07608033
000060 64 2e 5a bc 9f 51 59 bd c4 04 70 3d f1 e8 b6 bc
       -0.013316724 -0.053056356 0.058598295 -0.022327872
000070 f3 ee 9d 3d 55 fb 12 3e e3 a0 ea 3c 46 90 3a 3d
       0.077115916 0.14353688 0.02864117 0.045547746

bn1.weight f4 [32]
000000 a8 ab 7e 3f b6 02 7b 3f bc 8a 7c 3f a3 45 80 3f
       0.99480677 0.9805101 0.9864919 1.0021251
000010 88 32 81 3f a2 73 7d 3f 0d 0c 80 3f a2 bb 7b 3f
       1.0093546 0.99004567 1.0003678 0.9833318
000020 65 25 78 3f 2a 36 80 3f ef e1 7e 3f 83 b3 82 3f
       0.9693206 1.001653 0.995635 1.0211033
000030 82 d1 7f 3f fe 39 80 3f 26 55 79 3f 15 23 80 3f
       0.9992906 1.0017698 0.9739555 1.0010706
000040 d7 cb 80 3f 31 32 7e 3f d2 be 7c 3f 40 e4 7b 3f
       1.0062207 0.99295336 0.9872867 0.98395157
000050 97 d6 7f 3f f4 6f 7a 3f 6d ec 82 3f 43 af 7c 3f
       0.99936813 0.97827077 1.0228401 0.9870493
000060 69 c3 84 3f d2 68 82 3f dc f5 80 3f 76 ff 7f 3f
       1.0372134 1.0188239 1.007503 0.9999918
000070 9d 27 83 3f fd e3 7e 3f c2 ce 80 3f 7f 15 82 3f
       1.0246464 0.9956663 1.0063097 1.016281

bn1.bias f4 [32]
000000 c7 5d cb 3d 99 34 93 3d 62 75 63 bd fb d9 0b 3e
       0.09929996 0.071877666 -0.055531867 0.13657372
000010 fd 71 44 3e 30 32 de 3d 0a 49 6a 3c 3c 6d 7f 3c
       0.19184108 0.10849416 0.01429964 0.015590008
000020 a0 61 f4 3d 6a a7 e5 bc 47 63 4f 3d 96 f7 a9 ba
       0.11932683 -0.02803393 0.050631788 -0.0012967463
000030 0f 86 f8 3d 4e df 04 3e 1f 5f cd 3c 04 54 8e 3c
       0.12134945 0.12975809 0.025069771 0.017374046
000040 d1 67 a5 3d 1a f7 8d ba 5c 14 23 bd ce 41 db 3d
       0.08076442 -0.0010831088 -0.039814338 0.107059106
000050 d1 f5 cf 3d c9 d3 c8 3d d0 e0 81 3d 25 64 25 3e
       0.10154308 0.0980602 0.06341708 0.16151483
000060 b0 61 20 3e 1d 17 26 3d 46 cf ff 3c b8 52 9f 3d
       0.15662265 0.040549386 0.031226765 0.07779449
000070 fc dd ff 3d f0 c3 38 3d 7a 96 e2 3d c9 5a f6 3d
       0.12493512 0.045108736 0.110638574 0.12029035

bn1.running_mean f4 [32]
000000 35 7a ac 3d a6 61 8a bc 71 83 c7 bd 2e a2 43 3d
       0.08421747 -0.016892266 -0.09741867 0.04776209
000010 71 26 f8 39 89 8c e7 3b 31 5b 8a 3d 52 88 87 3c
       0.00047330887 0.0070663136 0.06755675 0.016544495
000020 c7 04 a9 3d 77 8d b7 3d 25 e8 ee 3c d0 3e e2 3d
       0.08252864 0.08962529 0.02916343 0.11047137
000030 9e f4 cf 3c 93 47 f4 bd 10 e2 b9 3d ec 8c ba bc
       0.025385197 -0.11927714 0.09076321 -0.022772275
000040 e4 07 04 bd 3e 91 9f 3d b8 1f f8 3d fc 8f d9 bd
       -0.032234088 0.077913746 0.12115425 -0.10623166
000050 87 7c 36 3d 90 f5 70 bd f8 af 0e bd 04 ce 99 3d
       0.044552352 -0.058827937 -0.034835786 0.075099975
000060 e4 9e 78 bc 8d 24 50 bd 07 fd 6e 3d 22 6e b9 bc
       -0.015174601 -0.050816108 0.058346774 -0.022635523
000070 4d 17 9e 3d 07 91 13 3e 8c a6 f1 3c b7 a4 3d 3d
       0.07719288 0.14410792 0.029498361 0.046299662

bn1.running_var f4 [32]
000000 d1 74 1c 3c 8b ed 47 3c 6a b4 16 3c 90 64 08 3c
       0.009549336 0.012202631 0.0091982875 0.008324757
000010 bc 3d 57 3c 16 ab 33 3c 75 67 cc 3b 44 50 b3 3a
       0.013137277 0.010966083 0.006237919 0.0013680537
000020 f2 f5 c2 3b 08 2e 83 3c b5 73 a7 3c e7 50 e9 3c
       0.005949729 0.01601316 0.020440916 0.02848096
000030 46 e0 d2 3c 39 65 f2 3b 49 95 98 3b 3c 59 39 3b
       0.025741708 0.0073973206 0.004656468 0.0028281948
000040 ef 1f 4e 3c 00 48 b2 3c 3f c2 55 3c 02 c6 1c 3c
       0.012580856 0.021762848 0.0130468 0.009568693
000050 dc 3b ae 3b 3d 5c 4e 3b ed eb 65 3c 49 06 51 3c
       0.0053171944 0.0031488084 0.0140333 0.012757846
000060 ed 8f 26 3c b7 a2 27 3b ef 5d 3f 3a 96 e7 19 3c
       0.0101661505 0.0025579163 0.0007300069 0.009393593
000070 c3 7e 75 3c d9 41 4f 3b f9 85 5b 3c 79 e7 e4 3b
       0.014983836 0.0031624942 0.013398641 0.0069856015

conv2.weight f4 [32, 32, 3]
000000 58 3b cc 3d 96 4f 60 bd ee 82 b0 3c f9 6d de bd
       0.099722564 -0.0547634 0.021546807 -0.10860819
000010 6a d7 1d bd 98 81 2b 3b 7d ec 90 3d b0 ec 80 3d
       -0.038535513 0.0026169773 0.070763566 0.062951446
000020 93 c3 e4 bc fe 34 09 bd e5 7d 0a bb 8d b1 94 bd
       -0.027925288 -0.033497803 -0.0021132168 -0.072604276
000030 4c dc 06 bd d8 de d6 3c 04 2f 5d bc e7 23 a2 3d
       -0.032924935 0.026229307 -0.013499979 0.07917004
000040 59 52 d3 3c d5 d3 9a bc 3b 41 f7 bc 62 10 63 ba
       0.025796102 -0.018899838 -0.030182471 -0.0008661804
000050 98 41 44 3d 11 88 99 bc 10 b5 9b bd 96 94 a0 bb
       0.047914118 -0.01874164 -0.07602894 -0.0049005253
000060 46 c4 bb bc 86 16 ac bd f9 ae cf bd 54 ad d9 b9
       -0.022920739 -0.084027335 -0.10140795 -0.00041518605
000070 d2 10 9d 3d 68 97 04 bd 73 3f 6d 3d f7 d1 5b bd
       0.07669224 -0.032370955 0.057921838 -0.053667035
000080 6b 3d 8f 3d 06 d3 2c bc 41 b8 8f bd e6 39 8e 3c
       0.069941364 -0.010548359 -0.070175655 0.017361593
000090 e2 db 04 3d b7 c4 b0 bd c9 51 1f bc a0 59 c2 bc
       0.03243626 -0.086312704 -0.009724089 -0.023724377
0000a0 8a 85 4d bc 29 f1 6a 3d 52 cd a2 bd 8f 0b 53 3d
       -0.012544045 0.057358894 -0.07949318 0.051524695
0000b0 60 cc de 3c 4f 9c c5 bd ea 67 68 bd fc ae 33 3d
       0.027197063 -0.09648954 -0.056739725 0.04386805
0000c0 49 3c d4 bd 91 c5 bc 3d 38 0a 3a bd a0 5c 1a 3d
       -0.10363061 0.0921737 -0.0454199 0.03768599
0000d0 4a be 19 3c 83 c7 02 bc e1 d9 b8 bd fd be 5e bb
       0.009383747 -0.007982138 -0.09025932 -0.003398835
0000e0 43 fa ac bd 72 4c 0c bd 7a 2a 19 3d 7c 49 ad bc
       -0.08446171 -0.03425259 0.037394024 -0.021153204
0000f0 ca cd 8a 3c 07 a3 b6 bd e8 42 dc bd b4 d5 54 3d
       0.016943831 -0.08917814 -0.10754949 0.051961616
000100 a8 4c 5b bd d4 f6 e6 3d f6 9c 60 bd b9 a7 0f ba
       -0.053539902 0.112775475 -0.05483719 -0.000548001
000110 93 78 a6 3d a7 93 ca bb ab db ad bd b7 a3 1e bd
       0.081284665 -0.0061821523 -0.08489164 -0.03873035
000120 75 98 0a 3d 00 e1 8d 3d 81 0f d8 3d 78 80 41 3c
       0.0338368 0.06927681 0.10549832 0.0118104145
000130 38 a5 e4 3c f7 44 c9 3d 8f 69 92 bd bc aa 0c bd
       0.027910814 0.09827607 -0.0714904 -0.034342512
000140 0b 7c a4 bd 80 77 1e 3d e9 ce b5 3d 98 dd 8e 3d
       -0.08031472 0.038688183 0.088773556 0.069758594
000150 08 d2 8b bd af 4d 84 3d 61 d1 ed 3d 64 61 28 bd
       -0.0682717 0.064601295 0.116122015 -0.041108504
000160 8b c1 25 3d c4 e1 bb bd 27 ad 6c 3d b9 0a d7 bc
       0.04046778 -0.09173921 0.05778232 -0.02625023
000170 d1 f3 f9 3d 43 07 68 3d 6c 06 8a bd cd 20 71 bd
       0.122047074 0.05664755 -0.06739506 -0.058869172
000180 5d ce b9 bd 0c 61 cb bd 2a 33 83 bd 50 dd 0f 3d
       -0.09072564 -0.099306196 -0.06406243 0.03512317
000190 85 f6 41 3d 10 9c 8f bd a3 c5 b0 3d 0d a3 ac bc
       0.04735424 -0.070121884 0.08631446 -0.021073842
0001a0 e2 cc d7 3b f2 fb 83 3d e5 93 9b 3d 99 1e dd bd
       0.006585703 0.06444539 0.07596568 -0.10796852
0001b0 84 71 07 3d 1f 2a 69 bd 64 03 b1 bd 6b 3a c2 ba
       0.03306724 -0.056924935 -0.08643225 -0.0014818435
0001c0 f0 a0 37 bd b6 2b 1b 3d 3a 93 b5 3c 76 df 78 3d
       -0.044831216 0.037883483 0.02216493 0.060759984
0001d0 07 9a aa 3d 0c 71 ba bd 74 76 a2 bd 93 26 9f bd
       0.0833016 -0.09103593 -0.079327494 -0.07771029
0001e0 2c 40 0b 3d ef f2 a8 3d 4f eb 78 bd d8 72 96 3c
       0.033996746 0.08249461 -0.060771283 0.018365309
0001f0 3f 2b 91 3c 2d 01 4e 3d 96 3e 3d 3d fd ec 06 3d
       0.017720817 0.05029409 0.046202265 0.032940853
000200 63 56 bf 3d f2 2d 54 bc e5 c4 dc 3d 74 3a 00 3d
       0.09342649 -0.012950407 0.10779742 0.031305745
000210 7e 9e 9a bd 77 d9 82 3d 51 aa 71 3d 4a 42 72 3d
       -0.07549761 0.063891344 0.059000317 0.05914525
000220 13 f9 8d 3b b0 86 60 3d c0 3d c0 3c f6 06 5d bd
       0.0043326705 0.054815948 0.023466945 -0.053961717
000230 30 90 86 bc 19 27 14 bd 4c 61 63 bd 4c 14 17 bd
       -0.016426176 -0.0361701 -0.05551271 -0.03688459
000240 a9 96 84 bd 8f 6d e9 bc f0 cd a7 bd 38 a9 84 3d
       -0.06474049 -0.028494624 -0.08193576 0.064775884
000250 97 77 64 bc c4 e3 b7 3d e5 58 32 bd 6a b7 26 3d
       -0.013944528 0.0897899 -0.043541808 0.04070226
000260 ca 83 62 bc 9a e2 37 3d 79 0d bc bc 98 12 75 bd
       -0.013825366 0.04489384 -0.022955643 -0.059832186
000270 66 56 e2 b9 24 36 80 bd 8d 47 44 3d 65 ab 23 bd
       -0.0004317045 -0.062603265 0.0479198 -0.039958376
000280 df 8e 0a 3d 15 f0 59 bd 09 77 47 bd 37 30 dc bd
       0.03382766 -0.053207476 -0.048697505 -0.10751384
000290 dd a1 8a 3c e5 69 3d 3d 6d 59 91 3d bb 79 1a 3d
       0.016922886 0.046243567 0.07097135 0.037713747
0002a0 73 12 0f bd cd 74 80 bc f6 7c 25 3d e9 c8 d2 3d
       -0.034929704 -0.015680695 0.040402375 0.10292227
0002b0 ec cd 9c ba 4e 8b 99 bd e6 c0 e6 bd 6b 01 01 3d
       -0.0011963225 -0.074972734 -0.11267261 0.031495493
0002c0 86 1d 9c 3d b1 82 04 bd 67 e2 8e 3d 43 18 eb 3d
       0.07622819 -0.0323512 0.069767766 0.11479237
0002d0 49 19 d1 3d 01 59 8e 3d 6d 53 a7 bd b9 78 6b 3d
       0.10209901 0.0695057 -0.08170209 0.057488177
0002e0 eb da d0 bb 6f 08 4d bd d9 5e 04 be 78 27 72 bd
       -0.0063737533 -0.05005687 -0.12926807 -0.05911967
0002f0 93 e9 a1 3d bc f4 ea 3d 37 41 80 3d 29 f5 ad bd
       0.07905879 0.11472461 0.06262439 -0.08494026
000300 51 67 bf 3c 8e d0 63 3d 0a 1e 3c 3d 38 b8 8a bd
       0.023364695 0.055618815 0.045927085 -0.06773418
000310 ff f4 7c 3d 6f 23 05 bc 06 67 47 bb 37 7f db bd
       0.061757084 -0.008126124 -0.0030426397 -0.10717624
000320 20 2e a0 bc 10 00 9c bd cf e2 58 bd 71 9e 92 3b
       -0.019553244 -0.076171994 -0.052950677 0.004474454
000330 a8 0d 92 bd ae e8 ec 3c 47 f9 db 3d 4d b1 70 3c
       -0.07131511 0.028919544 0.10740905 0.014690709
000340 7e 3f 7a bd a8 6f 7b bb a5 6b 23 bd 74 22 7d 3c
       -0.061095707 -0.0038366113 -0.03989758 0.015450109
000350 e1 e5 91 bc 9f e6 14 3d 29 3a 02 bd 76 e9 da bd
       -0.01780981 0.03635275 -0.031793747 -0.106890604
000360 15 66 db bc 42 23 16 bd b3 dc ed 3c 26 d4 b6 3d
       -0.026782075 -0.03665472 0.029035902 0.08927183
000370 d5 72 8f 3d 45 8d 09 3d 6b bd 99 bd 47 30 85 bc
       0.07004324 0.03358199 -0.07506832 -0.016258372
000380 0c e5 25 3d ea 23 6e 3c c6 81 aa 3d 00 06 a7 3d
       0.04050164 0.01453493 0.083255336 0.08155441
000390 0e ca 16 bd f2 93 47 bd c8 d6 ca 3c 7a ee 82 3c
       -0.036813788 -0.048725076 0.024760619 0.015982855
0003a0 a6 cd 3b 3b 78 b8 be bd 94 2a e3 bd 54 73 6b 3d
       0.0028656512 -0.09312528 -0.110921055 0.057483032
0003b0 ea 8a b6 3d b9 91 8d bd a8 d2 29 bd 2f a1 5d bb
       0.089132145 -0.0691256 -0.041460663 -0.0033817997
0003c0 8e 43 96 bd 5a c3 10 be 4b 20 d5 3c 12 88 98 bd
       -0.07337104 -0.1413702 0.026016375 -0.07447828
0003d0 38 38 a3 3c 4d 9c 95 bd 79 84 46 bc ae 2b e8 bc
       0.019924268 -0.07305203 -0.012116545 -0.02834114
0003e0 71 ce 66 bc 2d 52 c4 bc 9b 1f ce bd 9e 46 ce 3d
       -0.014087305 -0.023964966 -0.10064622 0.10072063
0003f0 5b dc 26 bd ca 78 73 bd 46 30 a5 3d c1 42 e8 3b
       -0.04073749 -0.059441365 0.08065848 0.007088036

conv2.bias f4 [32]
000000 b8 61 bc bd 48 98 17 bd 90 02 89 bd da 87 0c 3d
       -0.09198326 -0.03701046 -0.06689942 0.034309246
000010 fb 54 a1 3c 98 05 95 3d 23 b3 6e 3d 70 37 49 3d
       0.019693842 0.072764575 0.058276307 0.049125135
000020 22 06 29 3d 2a 4d d3 3c 01 90 cd bd ea f6 83 bd
       0.041265614 0.02579363 -0.10037232 -0.064435795
000030 2a bc bb bd 4d d5 70 bd 3c f5 81 3c 5a 38 c5 3d
       -0.09166749 -0.05879717 0.015864007 0.09629889
000040 6a d0 84 3d ae b0 ae bd f4 6b a8 3c 53 85 80 3d
       0.06485064 -0.08529793 0.020559289 0.062754296
000050 fe 08 98 3c b0 15 ad bd ef f8 52 3c 67 15 08 3d
       0.018558975 -0.08451402 0.012876733 0.033223536
000060 5f e2 aa 3c 60 43 bc 3d e8 2e a7 3d 8e 46 38 bd
       0.020859895 0.09192538 0.081632435 -0.04498916
000070 57 3f 96 3d 1e e9 df bd 26 50 6c bd 82 d3 1e 3d
       0.073363 -0.109331354 -0.057693623 0.03877593

bn2.weight f4 [32]
000000 2f 73 7b 3f 05 3f 79 3f 0e fc 82 3f 35 2b 7c 3f
       0.9822263 0.97361785 1.0233171 0.9850343
000010 8f 92 7d 3f 71 cf 7a 3f df 79 81 3f be c9 80 3f
       0.99051756 0.9797278 1.0115317 1.0061567
000020 a4 f2 82 3f 28 3c 7c 3f 64 fd 7b 3f 69 16 84 3f
       1.0230298 0.9852929 0.9843352 1.0319339
000030 35 6b 82 3f 97 11 7b 3f a0 6a 7e 3f ac d7 7a 3f
       1.0188967 0.98073715 0.99381447 0.9798534
000040 a6 bb 79 3f 87 a4 86 3f fe 00 85 3f e0 44 83 3f
       0.97551954 1.051896 1.0390928 1.0255394
000050 a6 76 80 3f 14 ab 80 3f 33 b8 79 3f f2 7c 80 3f
       1.0036209 1.0052209 0.9754669 1.003813
000060 8f 59 7f 3f 7b 1d 80 3f c9 74 7e 3f 12 cd 89 3f
       0.9974603 1.0008997 0.9939695 1.0765707
000070 96 c1 80 3f 36 29 82 3f 8d 12 83 3f 7f e3 85 3f
       1.0059078 1.0168827 1.0240036 1.0460051

bn2.bias f4 [32]
000000 f8 72 20 3d e9 99 31 3c d8 2e 48 ba c8 4b 9a 3c
       0.039172143 0.010839918 -0.0007636375 0.018834963
000010 57 43 da b9 6d f5 8e bc 00 78 26 bd 59 50 a6 3d
       -0.00041630372 -0.017451013 -0.040641785 0.08120794
000020 0c 13 1b 3c a7 93 10 bd 86 56 27 3d d1 dc 01 bd
       0.00946499 -0.035297062 0.040854 -0.031704728
000030 b7 65 b8 bc b6 62 16 bd 96 02 af 3b b2 0d 12 3d
       -0.022509439 -0.03671523 0.0053408844 0.035657592
000040 45 4e 2e bc bf c4 98 bc 8d 65 14 bc 8b 0f 47 3b
       -0.010638778 -0.018648503 -0.009057415 0.0030374255
000050 06 f8 00 bc de a2 0f bd 49 5f 0d bc c8 7d 99 b9
       -0.007871633 -0.03506743 -0.008628675 -0.00029276148
000060 a2 35 80 3d 55 b9 6c 3d 60 af 12 ba f8 66 87 bb
       0.0626023 0.057793934 -0.0005595591 -0.004132148
000070 fd 05 d8 3c 5f a1 a1 3d ac 2c 1d bd 30 05 0e bd
       0.026370043 0.07892107 -0.03837268 -0.034672916

bn2.running_mean f4 [32]
000000 2b 10 9f be e1 65 a0 bc e6 8c 3b bf 44 1c a1 be
       -0.31067023 -0.01957983 -0.7326187 -0.31466877
000010 43 3c 27 3f 73 e8 33 bd 6b 19 d1 bf 53 11 16 bd
       0.6532633 -0.043922853 -1.6335882 -0.036637615
000020 af b0 20 bf 75 6e 00 3e 12 e4 73 3d 16 61 42 bf
       -0.627696 0.12542136 0.059543677 -0.7592939
000030 89 59 94 bf 39 0e c3 3e 5e 16 8e be be a0 00 3e
       -1.1589824 0.3809679 -0.2775144 0.12561318
000040 0d 93 8d 3e 23 d3 28 bf af 51 aa bf 9d 57 86 be
       0.27651253 -0.6594717 -1.3306178 -0.2623872
000050 9c 03 04 bf 03 36 a2 3f 44 cb bc 3e 3e 9a 89 be
       -0.5156801 1.2672733 0.3687383 -0.2687549
000060 32 ab 4f be cb 5e ba 3d 3a dd 87 3f f4 86 a5 bf
       -0.2028015 0.091001116 1.0614388 -1.293181
000070 01 08 96 be 92 f6 cc bd e8 aa 56 bf 88 1c 42 bf
       -0.29302981 -0.10007967 -0.8385453 -0.75824785

bn2.running_var f4 [32]
000000 ed 35 49 3e 86 75 4e 3e 12 b3 f3 3e 20 83 09 3f
       0.19649477 0.20162019 0.47597557 0.53715706
000010 33 8b dc 3e b6 25 f1 3e 02 f9 c8 3f 60 b0 4a 3e
       0.4307495 0.47099084 1.5700991 0.19793844
000020 e1 ee f7 3e cd 6d b6 3e b9 51 70 3e 18 1d d3 3e
       0.48424438 0.35630646 0.23468675 0.41233134
000030 f9 ea 26 3f 32 43 9c 3e 5a cc 5f 3e f1 a8 8a 3e
       0.6520229 0.30520016 0.21855298 0.27082017
000040 ff 6e 19 3f c8 71 6f 3e 29 c3 92 3f 6c df ab 3e
       0.5993499 0.23383248 1.1465808 0.33568895
000050 57 be 9e 3e e7 94 62 3f 5c 9d 78 3e 8f 7f 13 3f
       0.31004593 0.88508457 0.24278778 0.57616514
000060 2e ba 5d 3e a6 82 96 3e 79 8f 02 3f 7d 42 5e 3f
       0.21653053 0.29396552 0.5100017 0.86820203
000070 40 2b 6c 3e c1 07 45 3e da b5 07 3f d2 be 49 3f
       0.23063374 0.19241239 0.5301186 0.78806794

conv3.weight f4 [64, 32, 3]
000000 f3 1a f6 bc bd bb 07 3d d0 fd a0 3b 05 68 71 bd
       -0.030042147 0.033138026 0.0049130693 -0.05893709
000010 b0 47 93 3d 06 1c cf bd 54 5d 29 bd e5 31 0a 3b
       0.07191408 -0.10112767 -0.04134877 0.0021086868
000020 e9 25 9e 3d 84 d4 05 3e 08 a3 6a 3c 2a 67 87 bd
       0.077220745 0.1306935 0.014321096 -0.06611474
000030 0d a6 19 3d 78 87 04 3b b8 87 a9 bc 80 5e 9b 3d
       0.037511874 0.0020222347 -0.020694599 0.07586384
000040 e1 b4 90 3d 0f 5e 13 bd 20 6d 53 bc 86 c0 cf bb
       0.0706575 -0.035978373 -0.012904435 -0.0063400893
000050 42 7d ed bc 30 61 7f 3d 44 ec 18 bd af 4e db bd
       -0.028990392 0.062348545 -0.037334695 -0.10708367
000060 9b 54 6b 3c 82 0a 10 3d 3c 9c 43 bd 8d 0d 01 bd
       0.014363433 0.03516627 -0.04775642 -0.031507064
000070 f3 35 a8 3d db f1 d3 3d 60 91 75 3d de ed ca 3c
       0.08213415 0.10348865 0.059953094 0.024771627
000080 7e 7c 0e 3d 4c ef 8e bd e8 8b e8 3d 00 aa 4a bd
       0.034786694 -0.06979236 0.1135481 -0.04947853
000090 ef 39 92 bd 13 41 61 bd 12 56 3a 3d 06 c0 2c bc
       -0.07139956 -0.0549937 0.04549224 -0.010543829
0000a0 fb 45 15 3d 38 b7 61 3d 31 40 a4 bd 98 32 cf bd
       0.03644369 0.05510637 -0.08020056 -0.10117072
0000b0 d3 ed 19 3b 71 67 50 3c 8c 4c ef 3b 92 68 96 bd
       0.0023487702 0.012719975 0.0073028263 -0.07344164
0000c0 1e a0 21 3d 55 2f 24 bd 77 e8 41 3d 14 ab 0a bd
       0.03945934 -0.0400842 0.047340836 -0.03385456
0000d0 07 9b c0 bd d8 90 66 3d 70 02 cb 3c 5c 7d cd 3c
       -0.09404569 0.056290478 0.024781436 0.02508419
0000e0 1d 15 54 3b 58 9e 2c 3d 0e a8 88 3d 8b ee d0 3d
       0.0032361217 0.042143196 0.06672679 0.102017485
0000f0 6a 0b b1 3d 86 f3 e9 3c e3 ec b5 bd b5 61 7e 3d
       0.08644755 0.028558504 -0.08883073 0.0621049
000100 6f 6b 72 bd aa 8f 96 bc bd 67 83 bd b5 82 be bc
       -0.059184488 -0.018379051 -0.06416271 -0.023255685
000110 3b 37 56 bd 12 dc 01 3e 48 c9 0c 3e 57 f1 bb 3d
       -0.052298766 0.12681606 0.13748658 0.09176891
000120 8e 2a fe bc ac b6 b2 3d 55 18 f3 3b fa b4 04 3d
       -0.031026151 0.08726248 0.007418672 0.032399155
000130 21 fc 4a bd 5b 65 d8 bd 7c ff af bd 5a 57 8f bc
       -0.049556855 -0.10566207 -0.08593652 -0.017497707
000140 ec 56 f0 bd 89 08 88 bd 5a 3b c9 3d 3b 8b 8b bc
       -0.11735329 -0.06642253 0.098257735 -0.017034164
000150 43 04 ae bd 52 b2 f2 3b 68 ee 75 3d 42 d6 be bc
       -0.084969066 0.0074065113 0.060041815 -0.023295525
000160 ab 91 41 3c 35 8a 77 bd 34 42 60 3d 85 11 9d 3d
       0.011814515 -0.06043454 0.054750636 0.07669357
000170 d0 9a 20 3b b3 b4 c8 3d 00 49 11 bd 5c 9c 00 bd
       0.0024506338 0.09800091 -0.03547001 -0.031399116
000180 fa 1d d7 ba ba 7e c0 3b f2 8c 77 bd f4 b6 8c bd
       -0.0016412132 0.005874482 -0.06043715 -0.06870833
000190 99 ac 0d bd 4c 8b df 3c 6f b3 a0 3b 74 70 50 bd
       -0.03458843 0.027288102 0.0049042027 -0.050888494
0001a0 6f d4 f5 3c 9b fe 0b be fc d0 85 bd 40 32 10 bd
       0.030008523 -0.13671343 -0.06534001 -0.035204172
0001b0 8e 82 b1 bd 24 3d 9c 3d a8 ea 01 bd e7 d5 08 3d
       -0.086674795 0.07628849 -0.031717926 0.03340712
0001c0 77 25 aa bc ec 58 aa bd 6b 82 d2 3d 37 bf 4b 3b
       -0.020769818 -0.08317742 0.102787815 0.0031089315
0001d0 b5 eb b4 3c e0 ea 99 3c b4 f6 05 be ae 4e 97 3c
       0.02208505 0.018788755 -0.13082391 0.018470135
0001e0 1c cf 81 bd 11 b8 e3 bd ef d0 09 bc 6f ae 63 bd
       -0.06338331 -0.11119092 -0.00841163 -0.055586275
0001f0 1c 16 a9 bd aa 17 5a bd 39 d1 10 3d db d4 f0 3b
       -0.0825617 -0.053245224 0.03535578 0.007349593
000200 71 28 ae bc ed 1c b8 3d 11 ae c9 3c bf 23 ae bd
       -0.021259518 0.08989892 0.024619134 -0.08502912
000210 69 94 44 3d 73 01 d0 3d 94 a8 4f bc 27 e0 f0 bc
       0.047993097 0.101565264 -0.0126744695 -0.02940376
000220 f2 b1 9c 3d ed 5b bf bc 78 b7 d3 3d 59 bb e4 3d
       0.07651128 -0.023359263 0.10337728 0.11168546
000230 3a 20 a5 3d ee ad d3 bb 00 d8 8b bb b7 e1 b9 3b
       0.08062787 -0.006459943 -0.0042676926 0.0056726593
000240 05 8c f2 bd e5 9e 73 bd 1c 4e 6e bd fe 6d 3b bc
       -0.11843113 -0.059477706 -0.05817996 -0.011439798
000250 17 9b 69 bd c8 c7 27 bd 1c fe 8e bd e3 06 37 bd
       -0.05703267 -0.04096201 -0.06982061 -0.044684302
000260 eb 2c cf 3c cc 63 44 3d 99 7d 28 bd a7 21 bc bd
       0.025289973 0.047946736 -0.041135404 -0.09186106
000270 0b 79 9f bd 11 7a 9e bc 2f 89 d6 bd 5b b4 b2 3d
       -0.07786759 -0.019345315 -0.104753844 0.08725806
000280 f6 c0 81 3d 16 da b8 3d 28 ab 6e bd c9 4f 83 bd
       0.063356325 0.090259716 -0.058268696 -0.06411702
000290 f0 5f bc 3d d6 51 ac bd 42 00 d4 bd a2 26 f3 bd
       0.09197986 -0.084140465 -0.10351612 -0.11872603
0002a0 d1 8e 21 bd 5b fa 40 bd c5 49 e9 bd fd a8 71 3d
       -0.03944284 -0.047113758 -0.113910235 0.05899905
0002b0 d4 e5 8b bd e7 74 c2 bc 28 63 42 3d df 99 13 3d
       -0.068309456 -0.023737384 0.047457844 0.036035415
0002c0 29 0a b5 3d b5 f6 09 3c fa 8e 8c 3d 21 23 ec 3b
       0.088398285 0.008420636 0.06863208 0.007206336
0002d0 c3 03 d3 bc 03 c1 82 bd d5 55 0d 3d f4 c8 89 bc
       -0.02575863 -0.0638447 0.034505684 -0.016819455
0002e0 47 f2 59 bc d4 26 e7 3a 45 6f ee 3b 82 fe d2 bd
       -0.013302392 0.0017635473 0.007276448 -0.1030245
0002f0 2d 96 77 3d 05 eb cc 3d 0e 66 4f 3d 7b d7 38 bc
       0.060445953 0.10005764 0.050634436 -0.011281843
000300 e3 52 f3 bd 9a 4b f9 bc 5f d3 a8 bd 1d b8 86 bd
       -0.11881044 -0.030431557 -0.08243441 -0.065780856
000310 10 09 94 3d ce cd 12 bd b1 7a c9 3d 15 61 1f bd
       0.07228291 -0.035840802 0.09837855 -0.038910944
000320 c8 29 22 bd 63 49 a7 bd d0 a8 e2 3c 63 ac 3c 3d
       -0.039590627 -0.08168294 0.027668387 0.04606284
000330 e8 39 42 3d df a5 b6 3d 4c 09 25 3d 1d 5c dc bd
       0.047418505 0.08918356 0.04029207 -0.10759757
000340 ca 8d c6 bc 5a 60 23 3d a4 d6 87 3d 86 65 06 3d
       -0.024237532 0.03988681 0.06632736 0.032811664
000350 2d 76 5b bd 1d 2f 09 be d5 c7 84 3c a4 75 51 bd
       -0.053579498 -0.13396879 0.016208569 -0.05113758
000360 04 e3 8f 3c dc 9c d4 bc 59 3e 67 bc c8 04 ff 3c
       0.017564304 -0.025953703 -0.014113986 0.03113021
000370 d1 3b 04 3e b0 14 d5 bc 2c 94 bd 3c 54 57 9a bc
       0.12913443 -0.026010841 0.023141943 -0.01884047
000380 3b 4a f7 bc 3b 4e fc bc 9f 1c df bb 11 52 b3 3c
       -0.030186763 -0.030799022 -0.006808832 0.021889718
000390 b8 c2 c9 bd ee 01 f7 3c b2 93 81 bd 3d 5d f2 3c
       -0.09851593 0.030152287 -0.06326999 0.029585475
0003a0 93 37 a6 bd d8 26 fb 3c d5 43 31 3d 27 44 5b 3d
       -0.08116069 0.03065817 0.04327758 0.053531792
0003b0 9d a2 1e 3c 78 27 58 3d af fd ae bd 79 9b a4 bd
       0.009682325 0.052772015 -0.0854448 -0.080374666
0003c0 36 24 71 3d e0 39 99 bd 15 6f 41 bd 2e a7 06 be
       0.058872424 -0.07481742 -0.047225077 -0.13149711
0003d0 39 ca 2c be db 2c eb bd cb 95 8a bc 1d 98 88 bd
       -0.16874017 -0.11483165 -0.01691713 -0.06669638
0003e0 58 f5 06 be 3a 15 87 bd 2f 2a 08 3d 20 6d d9 3b
       -0.13179529 -0.065958455 0.033243354 0.006635323
0003f0 62 18 50 3c e0 c2 0e be f1 6a db bd 22 06 23 bd
       0.012701126 -0.13941526 -0.10713757 -0.03980077

conv3.bias f4 [64]
000000 37 b2 1e bd 1c 2f c5 bd 0c e5 85 bd ea 83 3e 3d
       -0.038744178 -0.09628126 -0.06537828 0.04651252
000010 00 50 9d 3d 3b 92 40 3b 5d 8d 3f bd b7 0b 3d 3d
       0.076812744 0.0029384035 -0.046765674 0.04615375
000020 82 69 0a bd d6 f1 08 3d de 20 89 bd 73 c3 5e 3d
       -0.033792026 0.033433758 -0.06695722 0.054385614
000030 e2 52 38 bd 0e 7c 78 3c 44 97 87 3c f6 bf d5 3d
       -0.04500092 0.015166296 0.016551621 0.10437004
000040 6e 3f ae 3d d8 d5 b1 bd f7 02 69 3d 67 35 a0 bd
       0.08508192 -0.086833656 0.056887593 -0.07822686
000050 a1 40 3d bd a0 1e 2b 3d 23 11 89 bd f1 9f ca 3d
       -0.046204213 0.041777253 -0.06692722 0.09893788
000060 13 09 45 3d c1 b5 e2 3b 8c 68 74 3d 03 7d bb bd
       0.048104357 0.0069186394 0.059670016 -0.091547035
000070 a2 8e 86 3c 95 f2 52 3d b8 32 45 bd 29 f8 e3 bc
       0.016425434 0.051500876 -0.048144072 -0.027828293
000080 df 3f 6a 3d c8 08 a2 3d f4 4d 41 bd 9c 9f 70 3d
       0.05718982 0.07911831 -0.047193483 0.058745965
000090 4d e5 70 3d 1f 23 7d bd 55 bf 9d bd bd e6 71 bb
       0.05881243 -0.061801072 -0.07702509 -0.0036911212
0000a0 7c 30 55 3d 95 1a 97 bd 24 0d 93 bd 5b 00 a5 3d
       0.05204819 -0.07378117 -0.07180241 0.080567084
0000b0 4e 4b 80 bd 64 35 8d bd 58 ed d2 ba 11 ee c1 3d
       -0.06264363 -0.06894949 -0.0016092462 0.09469236
0000c0 cf 38 8f 3d 1b c4 40 3d f5 44 87 3c cf 42 42 bd
       0.06993257 0.04706202 0.016512373 -0.047426995
0000d0 21 57 89 bd f8 f6 3a 3d 3e f5 17 3d 63 52 d4 3c
       -0.06706072 0.045645684 0.037099116 0.025918191
0000e0 52 18 18 bd 45 42 cb bd 0a ec a2 3c 6b dc b5 bc
       -0.03713257 -0.09924749 0.019887943 -0.02219983
0000f0 98 2b 4a 3b 60 90 0f 3c ae d3 6f bd f0 83 8c bd
       0.0030848738 0.008762449 -0.058551483 -0.068611026

bn3.weight f4 [64]
000000 98 19 71 3f bf 93 80 3f 62 d8 76 3f 9b 13 84 3f
       0.9417968 1.0045089 0.96423924 1.0318483
000010 e6 70 85 3f 8d ae 7d 3f 96 9e 87 3f b4 5e 83 3f
       1.0425079 0.9909447 1.0595272 1.0263276
000020 ad fc 7f 3f 60 47 84 3f a1 5d 6c 3f 5b 81 7d 3f
       0.9999493 1.0334282 0.92330366 0.99025506
000030 07 f9 81 3f 39 90 85 3f da de 84 3f a5 ea 82 3f
       1.0154122 1.0434638 1.0380509 1.0227858
000040 82 df 82 3f b8 4b 86 3f 6c 7e 7d 3f fc 7a 86 3f
       1.0224459 1.0491858 0.9902103 1.0506282
000050 9b 22 74 3f c4 1d 87 3f 0b 64 79 3f cb 0d 81 3f
       0.95365304 1.0555959 0.9741828 1.0082334
000060 74 b4 84 3f b0 d0 7d 3f 6a ce 76 3f ae 73 7e 3f
       1.036757 0.99146557 0.9640871 0.99395263
000070 c6 8c 86 3f 56 9e 79 3f 81 4d 7b 3f 4f 29 81 3f
       1.0511711 0.97507226 0.98165137 1.0090731
000080 3a 00 81 3f 78 16 7f 3f 2d ac 86 3f 3c ac 85 3f
       1.0078194 0.9964366 1.0521294 1.0443187
000090 60 07 76 3f 15 c1 7a 3f a4 23 78 3f cd c9 74 3f
       0.96105003 0.9795087 0.96929383 0.95620424
0000a0 f4 58 83 3f d3 52 79 3f d6 73 87 3f 21 00 89 3f
       1.0261521 0.97392005 1.0582225 1.0703164
0000b0 b3 1a 7b 3f 1a 01 91 3f 2c e2 81 3f 43 ac 7b 3f
       0.98087615 1.1328461 1.0147147 0.98309726
0000c0 ce f7 73 3f 55 da 78 3f f8 51 82 3f e0 6c 78 3f
       0.95299995 0.9720815 1.0181265 0.9704113
0000d0 43 6a 88 3f 1e 6a 74 3f 5a 39 82 3f 2d 03 7e 3f
       1.0657429 0.9547442 1.0173752 0.99223596
0000e0 ff a5 81 3f b7 53 83 3f cd b4 88 3f 66 15 84 3f
       1.0128783 1.0259923 1.0680176 1.031903
0000f0 fa 09 81 3f 3b 1b 70 3f fb 7a 77 3f c6 1d 7e 3f
       1.008117 0.9379155 0.9667203 0.9926418

bn3.bias f4 [64]
000000 3c 73 11 bd 7d 4f d3 bd bd ac 1b bd c6 6a 5c bd
       -0.035510287 -0.103178956 -0.038006533 -0.053812765
000010 91 60 19 3b 3e 4a 6a bd f9 ff 5c 3b 79 6d 4e bd
       0.0023403505 -0.05719971 0.0033721908 -0.05039737
000020 e3 13 aa bd 3b f3 a6 bb f8 22 00 bc 86 c7 93 bc
       -0.08304574 -0.0050949133 -0.007820837 -0.018039476
000030 10 71 84 3c a9 6e 91 bc 34 82 06 bd 7d 71 14 bd
       0.016167194 -0.017752962 -0.032839015 -0.036241043
000040 ee d7 8b bb 3e 93 4a bc 7d 28 b1 bd bb fd 96 b9
       -0.004267684 -0.012364207 -0.08650301 -0.00028799273
000050 f1 83 cf bc a6 31 80 3b ed 34 8d bd 62 f2 0b 3d
       -0.02533147 0.0039121686 -0.068948604 0.0341667
000060 89 f3 ba 3c 5a 8a c5 3c 4f 93 29 bd 78 c1 80 bd
       0.022821205 0.024113823 -0.04140025 -0.06286901
000070 6b 05 02 bd 0c e4 b8 bd b7 28 59 bd 08 76 a4 bc
       -0.03174345 -0.090278715 -0.053017344 -0.020075813
000080 bd ad 3e 3d 92 78 90 bb 56 86 78 bc 57 18 1a 3d
       0.04655241 -0.0044089044 -0.015168747 0.03762087
000090 e0 e4 b5 3b 91 ce 45 bd d8 dc 2b bd e9 e6 d7 3b
       0.0055509657 -0.0482927 -0.04195866 0.006588806
0000a0 a4 4a 12 bd 29 ad 16 3d 10 09 7e 3c f5 bf 2b bd
       -0.035715714 0.036786232 0.01550509 -0.04193111
0000b0 95 6f b5 bc 74 02 d8 bd 38 1c 93 bd 0b c7 72 bd
       -0.022147933 -0.10547343 -0.07183117 -0.059271853
0000c0 c8 5c ae bd 8d aa 74 bc 79 76 3e bd 25 26 bd 3b
       -0.0851379 -0.014933241 -0.046499703 0.0057723694
0000d0 c5 68 71 bc 40 98 ce bc c2 b3 46 bc 2b a2 60 bd
       -0.014734452 -0.025219083 -0.012127819 -0.054842155
0000e0 2e be 47 bc 8c b8 93 3d 50 b1 b2 bb bc 08 db 3c
       -0.012191338 0.07212934 -0.005453266 0.026737563
0000f0 10 6b a8 3d f1 14 99 bd 80 dc d3 3c f4 85 aa 3a
       0.082235456 -0.074746974 0.025861979 0.0013009892

bn3.running_mean f4 [64]
000000 28 5f 8f 3e 4c 0f 91 bf 6f 43 5b bf c9 c6 e1 bf
       0.28002286 -1.1332793 -0.8564977 -1.763879
000010 c4 02 05 bf 1b 27 4e bf 68 e7 03 bf 9a 11 54 be
       -0.51957345 -0.8052842 -0.5152497 -0.2070984
000020 a4 75 fb 3e 25 4c 3a bf b0 c8 f7 3e 3f a3 46 3f
       0.4911319 -0.7277244 0.483953 0.77592844
000030 73 a7 52 be 40 7b e4 bf bc bc 1e bf 5c 2c d5 be
       -0.2057169 -1.7850113 -0.62006736 -0.41635406
000040 e8 ce de be 1e 8a 2f bf 8a 8d 83 bf ab 65 39 3e
       -0.43517232 -0.68570125 -1.0277569 0.1810519
000050 ba db e5 3e 20 ba 24 be d4 15 49 be b1 af bb be
       0.448942 -0.16086626 -0.19637233 -0.3665748
000060 3d 69 d0 be 97 c7 77 3e 87 a2 a1 bf cf b7 4b be
       -0.4070529 0.24197231 -1.2627724 -0.19894336
000070 86 b9 13 be ca 15 5e 3f 7d c9 60 be 91 3e 2a bf
       -0.1442624 0.86752 -0.21951862 -0.6650172
000080 7d c6 51 bf 59 df 03 bf 61 b9 52 bf 3e 94 a2 be
       -0.81943494 -0.51512676 -0.82314116 -0.31753725
000090 66 f3 19 3f a8 ec b8 be ea 1c 9c bd dc 5b 0f 3f
       0.6013702 -0.36118054 -0.076227024 0.5599954
0000a0 6f 78 1d bf a7 e3 12 3f db da 0b 3f 50 7b 84 bf
       -0.6151189 0.5737862 0.5463082 -1.0350132
0000b0 a3 3f 16 3f 5c 61 20 bf 59 3e 84 bd 22 e7 be 3e
       0.5869085 -0.6264856 -0.06457204 0.37285715
0000c0 96 76 46 3f 4d 6c 59 bd cc 30 9e 3d 3a d0 99 3d
       0.775247 -0.0530818 0.07724151 0.07510419
0000d0 4e 15 0b bf 63 e5 e9 3e 92 ff 8c be 66 b8 44 3e
       -0.54329383 0.4568282 -0.27538735 0.19210967
0000e0 5f 1d dd be f3 14 c6 be 35 d1 b0 3e 7f 09 ba be
       -0.4318647 -0.38687858 0.34534612 -0.3633537
0000f0 17 53 29 3e 2c 3a 28 3f af e2 67 bf bb 74 99 be
       0.16535603 0.65713763 -0.90580267 -0.2997187

bn3.running_var f4 [64]
000000 2d ec d4 3e 63 cb 0f 3f e8 18 77 3e fb 42 34 3f
       0.41586438 0.5616972 0.24130595 0.70414704
000010 d1 6a b5 3e 65 da ae 3e 38 e9 82 3e a6 c7 a5 3e
       0.35433057 0.34150997 0.25568557 0.32378882
000020 70 f1 58 3e 7c f9 86 3e 0c ae c0 3e d1 6e 2c 3e
       0.21185851 0.26362216 0.37632787 0.16839148
000030 7e 0d 78 3e a0 f2 9f 3f ee 3a 8f 3e 60 92 ec 3e
       0.24223897 1.2495918 0.27974647 0.46205425
000040 79 1b 69 3e 16 28 e0 3e 19 3c b1 3e 82 e4 4c 3e
       0.22764386 0.43780583 0.34616163 0.20009044
000050 8c ae 9a 3e 0b a6 49 3e 73 63 ba 3e fa bc 82 3e
       0.30211294 0.19692247 0.36404 0.25534803
000060 07 21 60 3e e4 0c 3a 3e fb 67 b1 3e 2e 3b 82 3e
       0.21887599 0.1816898 0.34649643 0.25435776
000070 10 35 5b 3e b0 25 b6 3e 7d a6 74 3e 67 43 8a 3e
       0.2140696 0.35575628 0.23891635 0.2700455
000080 ee 4f 81 3e a5 7d a8 3e 44 3b ee 3e 5f 34 90 3e
       0.25256294 0.3290836 0.4652959 0.28164956
000090 48 27 1e 3e 95 69 49 3e 65 51 22 3e 84 4b 8a 3e
       0.15444672 0.19669183 0.15851362 0.2701074
0000a0 7a 26 b2 3e 0b d2 8c 3e 3f 00 da 3e 11 dd 00 3f
       0.3479498 0.27504 0.42578313 0.5033732
0000b0 1c b7 b1 3e bc e6 9a 3e 7d f0 3c 3e 03 40 35 3e
       0.34710014 0.3025416 0.18451114 0.177002
0000c0 dd b0 49 3e 3b 41 5e 3e 9e 3f 04 3f 86 8f e9 3e
       0.19696374 0.21704571 0.5165957 0.45617312
0000d0 68 bc 79 3e 77 e3 d8 3d 13 46 59 3e 90 b4 29 3e
       0.24388278 0.105902605 0.21218137 0.16572785
0000e0 2d a8 02 3f 68 1c 53 3e 18 b9 61 3e 92 dc 2d 3e
       0.51037866 0.20616305 0.22043264 0.16978672
0000f0 62 95 42 3e 8d 7e 1a 3f ed a3 1b 3e e9 8a 7b 3e
       0.19002298 0.6034935 0.15199251 0.24564709

conv4.weight f4 [64, 64, 3]
000000 e7 4d 9d bb 10 4f ff 3c 2d f8 8d 3c 06 13 c6 3d
       -0.0048005464 0.03116563 0.017330253 0.09671597
000010 ab 35 10 bd df 37 a8 bc 30 8a 3a bb 6d 99 a6 bd
       -0.03520743 -0.020534454 -0.0028463714 -0.081347324
000020 28 50 b8 bc da 58 65 3d 7b 18 03 bd cc 42 50 3d
       -0.022499159 0.05599294 -0.03200577 0.050844952
000030 df c2 4a bd fc e4 06 bd 23 44 d5 3c 0d 0d fd bc
       -0.04950225 -0.03293322 0.026033467 -0.030890012
000040 d0 bc dc 3c 66 b1 21 bd 0b 98 7f b9 e0 a2 4b bd
       0.026945502 -0.03947582 -0.00024375335 -0.049715877
000050 83 7c 17 3d 3a 9b 9b 3d 9b 3d f6 3d c4 50 bb 3c
       0.036983978 0.075979665 0.12023469 0.02286566
000060 a7 30 04 3d 30 41 18 3d 55 0d 05 3d 30 5d 28 3d
       0.03227296 0.037171543 0.032483418 0.041104496
000070 ad 74 5e bd 11 02 9f bd 0b 93 b0 3c 9d ad d1 3c
       -0.05431049 -0.07764066 0.02155449 0.02559548
000080 e4 df 53 bc d6 c2 84 bd c6 47 f2 bc af 21 88 bb
       -0.012931798 -0.064824745 -0.02957524 -0.004154406
000090 59 b2 ae bc 68 75 89 3c 79 08 7c bc 86 25 0d bd
       -0.021325277 0.016779616 -0.015382879 -0.034459613
0000a0 53 50 1b bd cb cc a1 3d 1d 5f 25 3d fb 3f 1f bc
       -0.0379184 0.07900389 0.04037391 -0.009719844
0000b0 c5 78 f6 bc 10 00 c5 bd 9e 68 e1 3c 9b f2 ad bd
       -0.030086884 -0.096191525 0.027515706 -0.08493539
0000c0 2f a9 c3 bd 9d 6c a8 bd 3b 7d d1 bd 39 12 9c bb
       -0.095537536 -0.08223841 -0.10228964 -0.0047629145
0000d0 e2 3e 8d bd 0b 33 b4 3c 64 87 08 bd 67 60 12 bd
       -0.068967596 0.021996995 -0.033332244 -0.035736468
0000e0 00 e9 5b bd ad ea 02 bc 78 e5 95 3d 0a b8 13 3b
       -0.053689003 -0.007990521 0.07319158 0.0022540116
0000f0 db 60 80 3c 5e 84 8c bd 03 f8 54 3d d8 00 7e 3d
       0.015671184 -0.068611845 0.051994335 0.062012523
000100 59 a0 fd 3b 79 1e 60 3d e0 5f 20 bd ce 53 a1 bd
       0.007740062 0.05471656 -0.039153934 -0.078773126
000110 7e 9a 73 bc 9a a3 4f bb 23 2e 18 3c 42 ee 8d bd
       -0.014868377 -0.0031683207 0.009288344 -0.0693021
000120 b8 9d dd 3c 54 c2 16 bd 4a e0 9f 3c 15 8b 64 3b
       0.027052745 -0.03680642 0.019516129 0.0034872938
000130 61 76 45 bd 08 d5 56 bc ed 72 a8 bb 83 05 aa 3c
       -0.048208598 -0.013112314 -0.0051406533 0.020754581
000140 fd b2 96 3c ee 61 64 bb 29 46 cc bb f2 5d b5 bc
       0.018395895 -0.003484841 -0.0062339497 -0.022139523
000150 7e e2 6f bb d8 93 a7 bd db 74 bd bc 3a 32 64 bd
       -0.0036603506 -0.08182496 -0.02312701 -0.055711962
000160 21 fb ed bd 2a db e0 bc 6e f4 78 3d 3e ca 47 bc
       -0.11620165 -0.027448256 0.06077998 -0.012194214
000170 e8 99 ea bc a9 46 22 bd 0e b0 80 bd d7 1a 53 3d
       -0.028637841 -0.039618168 -0.0628358 0.05153927
000180 e5 f4 07 bd fd 13 f5 bc cb 7f 25 bc ed 18 4a bd
       -0.033192534 -0.029916758 -0.010101269 -0.049340177
000190 18 c7 d2 3c 89 7e 49 bc ae 61 99 3c fa 54 28 3d
       0.0257297 -0.012298235 0.018723335 0.041096665
0001a0 36 6a a8 3d 6c 5f 33 3d 65 9a b2 3d fa b5 2b bc
       0.08223383 0.043792173 0.08720855 -0.010480398
0001b0 d3 db 02 3d 31 a2 83 bd ec 6c 17 3c 04 42 87 bd
       0.031947922 -0.0642742 0.009242278 -0.06604388
0001c0 03 75 37 3d c8 8a af 3c df c4 ed bc 20 2c 97 bc
       0.044789325 0.02142848 -0.02902454 -0.018453658
0001d0 1b 75 96 3d 47 23 31 3d fb ae 2f 3d 45 78 9b bc
       0.07346555 0.043246534 0.042891484 -0.018978247
0001e0 e3 d0 b0 bd 7a ab 00 bd 09 4b 49 bd 2f fe 22 bd
       -0.08633592 -0.031413533 -0.049143825 -0.03979319
0001f0 3e 8d 4e 3d ad 2c d1 3b 85 68 75 3d f7 35 3e 3d
       0.050427668 0.0063834996 0.05991413 0.046438184
000200 45 03 24 bd 56 0a 1d bd ce cf d6 bc 12 e8 97 3d
       -0.04004218 -0.038339935 -0.026222136 0.07417311
000210 68 4c 94 bd 9d ce 42 3b c2 e0 35 bc 5d e4 1d bd
       -0.07241136 0.0029725202 -0.01110095 -0.038547862
000220 96 cd 09 bd 77 99 ae bd 4c 7b c8 bd ea 23 72 bd
       -0.033643328 -0.08525365 -0.09789142 -0.05911628
000230 fa b4 51 bc 2a 3e 48 bc 8c ea 98 3a 66 99 b7 bc
       -0.012799496 -0.012221852 0.001166658 -0.022412013
000240 e5 97 0b 3d d0 b4 29 3d d0 55 93 bc 71 9a 61 3d
       0.034080405 0.0414322 -0.017985255 0.055078927
000250 01 cf 51 3b 30 06 90 3d ba 67 92 bd c9 ef 1f 3d
       0.0032014253 0.0703243 -0.071486905 0.039047036
000260 02 f7 c5 3c 01 d6 82 3c 84 76 59 3d f7 61 a2 bc
       0.024165634 0.015971186 0.05309154 -0.019822104
000270 18 28 6c 3d 56 95 18 3d c2 99 60 bd 19 4b 83 3c
       0.057655424 0.037251793 -0.054834135 0.01602702
000280 5d 93 33 bd 8c e9 02 bd 50 08 82 bd 30 bd 2e bb
       -0.04384171 -0.03196101 -0.06349242 -0.0026663058
000290 a0 9c 2b bc 60 43 08 bd 3d e7 2b bd 06 cf 9b bb
       -0.010474354 -0.03326738 -0.041968573 -0.0047549037
0002a0 1d 0d 52 bd 9d 04 02 bd 9b a7 10 bb 14 56 46 3c
       -0.051282037 -0.03174268 -0.0022072557 0.012105484
0002b0 d4 b7 f3 bc 6f 61 5e bd 87 9c fb bc 03 47 db bd
       -0.029750742 -0.05429214 -0.030714286 -0.10706904
0002c0 bd 55 2f bd 59 d1 bd bd c8 f2 24 bd 69 4b b0 bd
       -0.042806376 -0.092684455 -0.040270597 -0.08608133
0002d0 25 8a 82 bc 6d e4 a9 3a 35 33 37 3c d0 43 d7 39
       -0.015935013 0.0012961753 0.011181642 0.0004105852
0002e0 03 88 33 bd 13 62 af bb 83 68 c1 bc d3 a3 c3 bc
       -0.043830883 -0.0053522675 -0.023609405 -0.023881828
0002f0 dd 3d b7 3c 07 76 9d bd 9e c6 68 3d 0d 68 23 bc
       0.022368366 -0.076885276 0.05683004 -0.009973538
000300 d2 f4 2c 3d 7a ac 6e 3d 77 12 6f 3d ca 45 81 bb
       0.042225666 0.058269955 0.05836722 -0.003945087
000310 1c b5 11 bc b7 45 2e 3c 22 98 63 bd 0b 37 b2 bc
       -0.0088932775 0.0106367385 -0.055565007 -0.021754762
000320 a8 de 42 3c 8a a0 e2 3c cd 50 bf bc 84 c2 28 3d
       0.011893906 0.027664442 -0.023353959 0.04120113
000330 0f 24 c4 3c bf 0b a0 3d 2a 9f 02 3c 65 fd d7 3c
       0.023942975 0.078147404 0.007972518 0.026365945
000340 ab 05 9e bc 1d 94 65 3c 99 84 3b bc ef 4c 7d bd
       -0.019289812 0.014012364 -0.011445188 -0.061840948
000350 62 41 77 bd d5 15 7a bd b6 45 a8 bc 5a bd 23 bd
       -0.06036509 -0.061055977 -0.020541053 -0.0399755
000360 04 c5 5a 3c fd 1c f4 bc 9d 56 18 bd 43 ff 6b bb
       0.013352636 -0.029798979 -0.037191976 -0.0036010302
000370 e1 91 21 bd 2e 48 6f bd 75 ee 04 bd f7 8c 41 bd
       -0.03944576 -0.058418445 -0.032453973 -0.047253575
000380 35 19 01 bd cb 22 c9 3c 2a 57 27 bd 6c c3 9b bc
       -0.03151818 0.024552723 -0.04085461 -0.019014083
000390 2c d8 2a bd cc 3d 39 bd ee a7 7d 3c 67 73 51 3d
       -0.041710064 -0.04522495 0.015481932 0.051135447
0003a0 ab e6 a4 3d 5f 4b 86 3d 59 56 04 3d 4a 85 20 3d
       0.08051809 0.06557345 0.03230891 0.039189614
0003b0 e5 1e d1 3d e6 81 42 bd ca 3d 8b 3d 61 50 b8 bc
       0.10210971 -0.047487162 0.06798895 -0.022499265
0003c0 df 0a 77 ba b3 28 99 bc dc 02 43 3c 76 f2 6e 3d
       -0.0009423922 -0.018696165 0.011902537 0.058336698
0003d0 90 e7 81 3d bb 2d 31 3d 0a 04 65 bd 90 fe 36 bc
       0.06342995 0.043256503 -0.055912055 -0.011169091
0003e0 46 5c 13 3a f2 71 f8 3d fe 70 80 bc 2a 7b 7b 3d
       0.0005621355 0.12131108 -0.015678879 0.061396755
0003f0 e7 52 61 3c a2 5d 0c 3b 64 cc d5 3b 62 ec ac 3c
       0.013752676 0.0021418114 0.0065246094 0.02110881

conv4.bias f4 [64]
000000 9f 3b 85 3c 3f 19 ed bc 31 56 da 3c 4a 96 d8 bb
       0.016263781 -0.028942702 0.026652427 -0.0066097127
000010 de 92 91 bd fc d2 83 3d d6 59 68 bd 56 1b 19 3d
       -0.07108091 0.064367265 -0.0567263 0.037379585
000020 2f eb 8a 3d be fd 23 bd b6 53 23 3c 60 0b 11 3c
       0.06783139 -0.04003691 0.009968689 0.00885281
000030 9f 44 de bc 1b 15 0d 3c 31 95 9e bc 7c 1d bb 3c
       -0.02713233 0.008610989 -0.01935825 0.022841208
000040 d5 be 4c 3d 94 88 45 3d 80 fb d0 bb 8e 9f 3c 3d
       0.04998668 0.048225954 -0.0063776374 0.0460506
000050 0e 2f 0f 3d 4b 5a b6 bd d6 d7 bc bc d4 9a 5a 3d
       0.034956984 -0.08903941 -0.023052137 0.05337031
000060 dd 12 b5 3b d7 53 cb bc 17 5a 78 3c 45 f1 15 3c
       0.0055259303 -0.024820251 0.015158198 0.009151761
000070 d4 28 08 3d e0 2e 99 3d 45 d1 31 bb 9a b6 79 3c
       0.03324206 0.07479644 -0.002713279 0.0152412895
000080 33 e3 80 bd e8 6e 26 3c 75 bd 81 3d 67 96 07 3d
       -0.06293335 0.010158278 0.06334964 0.03310242
000090 2f 62 46 bd b7 a8 ee 3c bd d4 11 3a 54 9a 1b bd
       -0.04843348 0.029133184 0.00055630115 -0.037988976
0000a0 2c 1a d1 bc c9 b3 44 3d eb 61 9a 3d 7c ef e8 bc
       -0.025525175 0.04802302 0.075382076 -0.028434508
0000b0 9b 52 3b 3d 29 98 64 3d 9e 26 93 bc 51 b0 7f bd
       0.045733076 0.055809174 -0.01796275 -0.062424008
0000c0 98 b8 8a bd ee 33 8b bb fb 89 5c 3c f9 ee e2 bc
       -0.0677349 -0.004248134 0.0134606315 -0.027701842
0000d0 5f db 30 3c 31 0b 5e bc 55 e7 83 3d 35 4c af 3b
       0.01079449 -0.013552473 0.064406075 0.0053496608
0000e0 54 80 d8 bc f2 d9 34 3d 5b 2e 13 3b 65 2d 23 bd
       -0.02642838 0.04415316 0.002245805 -0.039838213
0000f0 a0 fe 25 3d a2 2d 28 bd 8b 88 95 3c 27 e9 04 3d
       0.040526032 -0.041059144 0.018253585 0.032448914

bn4.weight f4 [64]
000000 7a c9 94 3f 3f 3b 9a 3f b5 83 91 3f cc ec 9a 3f
       1.1623986 1.204933 1.1368319 1.2103515
000010 5f e3 98 3f be 72 97 3f 46 18 93 3f 3e 0f 93 3f
       1.1944388 1.1831892 1.1491783 1.1489027
000020 9a 77 96 3f d4 a1 9b 3f 0d 4b 93 3f 02 7e 92 3f
       1.175525 1.2158761 1.1507279 1.1444705
000030 04 0f 98 3f e9 cf 92 3f 16 ef 9b 3f 74 99 96 3f
       1.1879582 1.1469699 1.2182338 1.176558
000040 4a e0 99 3f 65 0a 97 3f 60 46 94 3f 9b b7 98 3f
       1.2021573 1.1800047 1.1583977 1.1931032
000050 a2 0e 98 3f 5d 11 9a 3f cb 28 97 3f 7d 27 97 3f
       1.1879466 1.2036549 1.1809324 1.1808926
000060 f7 b0 90 3f d1 0e 97 3f c0 f8 98 3f 4b ff 9c 3f
       1.1304005 1.1801397 1.1950912 1.2265409
000070 c6 f2 93 3f 51 a6 9a 3f 10 66 94 3f 9a a2 92 3f
       1.1558464 1.2082006 1.1593647 1.1455872
000080 49 99 94 3f d2 47 9b 3f 06 1e 98 3f a6 25 97 3f
       1.1609279 1.2131293 1.1884162 1.1808364
000090 8c 33 9b 3f 4d 97 8d 3f 47 60 94 3f 92 56 98 3f
       1.2125106 1.1061798 1.1591882 1.1901419
0000a0 84 c9 92 3f 05 a0 94 3f 23 4d 96 3f 7d 48 92 3f
       1.1467748 1.1611334 1.174229 1.1428372
0000b0 94 7d 97 3f 4e b6 9a 3f df a5 98 3f d3 11 8e 3f
       1.1835198 1.2086885 1.192562 1.109919
0000c0 2b 4f 92 3f e0 33 91 3f 78 b8 9b 3f 31 54 94 3f
       1.143041 1.1343956 1.216567 1.1588193
0000d0 16 95 9a 3f 1f f8 92 3f 95 46 96 3f 5a c4 97 3f
       1.2076747 1.148197 1.174029 1.1856797
0000e0 98 4f 99 3f 77 63 94 3f 86 24 9d 3f d5 76 95 3f
       1.1977415 1.1592854 1.2276771 1.167689
0000f0 b4 3e 92 3f 63 1c 91 3f 3e a7 9a 3f 84 1d 8f 3f
       1.1425385 1.1336788 1.2082288 1.1180882
